quota/result/2x1-pv_1.0_0/4_checkpoint.pt (torch_old, 90354 bytes, 10 tensors)

nn_model.0.weight f4 [100, 2]
00000000: 3e60 d1bc 45b5 d93e b1fc 14bf 1d38 05bf
00000010: d670 8bbe ac2a 423e f12b 46bd f4f6 1e3f
00000020: 7351 e3bc 9154 7f3e 5cd3 5abe 1c54 0ebe
00000030: c2ef 2cbf 90c5 efbe 60c0 85be 5fc8 873d
00000040: 4aca 9f3e 328b c73e de70 f5be 86a7 9dbe
00000050: 1928 493e 622f 253f bd4d 46be 2b80 173f
00000060: 1c40 07be e378 f63d 6221 373f b0e9 17bf
00000070: c5ea e3be ac4f 37be bd95 abbe 0ac3 2a3f
00000080: 86aa eabe 86a8 a6be 53ef fcbe 2089 29bf
00000090: afbf ebbe d5e4 273f 32f4 9f3e 3a92 c73e
000000a0: 5052 183d 7b9c b9be 7001 f53d 4d04 29bf
000000b0: 68cc 02bf 4ca4 babe 1dd9 f43e 99dd be3e
000000c0: f68f a0be 0003 d1bc 4009 d33e b270 3d3f
000000d0: 4cd4 ae3e f53c 9c3d fe0d 063f 3eae c4be
000000e0: 70ed 063e 6558 0cbf 8aec fabe f205 bbbe
000000f0: b128 993e 4f7b a03e bc0c cabe 9c5d 803e
00000100: 1531 e23e b1c4 d5bd 3c5a 513c 0d2d 413e
00000110: 7bed cc3e 3fa3 373f 6e7f 0bbf 1cad 84be
00000120: 2a02 993e e8a5 1a3f ced4 1b3f 7fec 223f
00000130: 181a 103e 4969 1dbf 2838 853d 4b7e e2be
00000140: 5f10 1cbf 0f3f 2f3f 6e72 1a3f cb41 24bf
00000150: ec86 073e c8f4 f3bd 604f eebd c7b9 a5be
00000160: ef20 aa3e 9c5b c0be 672b 763e 9c8d ce3e
00000170: 717a 0d3f 451c 713e 4529 33bf 76da eabe
00000180: 3ea4 c53e 3a53 eb3d d635 0dbf 0b78 d0be
00000190: db97 333f 8efe ff3e a3db 9dbe 403d 36be
000001a0: 4d70 2cbf 003c 50bc 7751 08bf 67a1 0bbf
000001b0: e095 1fbd e86e d93d 0d17 a1be 11a6 e03e
000001c0: ca44 cbbe bd76 313f f8c6 043f ad71 13bf
000001d0: 2436 34be 60b0 023d 52c4 c83d d12d 5c3e
000001e0: d38e ad3e ed82 3abc 3a87 cbbe 2faf c63e
000001f0: 81a4 2dbf 2e95 d6be 1842 35be 975a b0be
00000200: 724e 7dbe 0c5e 14bf b005 1abe b4c6 1a3e
00000210: 16db ebbe 00a3 14bd 43e5 0f3f d47c fcbd
00000220: c2af 853d 3bcb fdbd def9 ff3d 5ef2 fd3e
00000230: fd39 393f a66f d23e 9bfc 373f 911b d6bd
00000240: 129d 22bf 61a2 abbe 8b07 073f 005a 85bd
00000250: 33f3 b3be 9db7 0abf 4668 29bf 24c8 18bf
00000260: a02f 2cbe 4b26 d83e a6bb c33e b094 2ebf
00000270: 93b0 0f3f 08d9 dbbe d013 19be f9cb 92be
00000280: e477 0bbe d42a 0ebe 0c70 22bf 884c 1cbf
00000290: 409b e2bd 80d2 153c 9019 c7be 9828 9e3e
000002a0: 8fed 22bf c076 43bd 0c49 2d3f d72f b5be
000002b0: d4bc 2e3f e6e4 7e3e 9efb 0fbf 0684 073f
000002c0: e81b a7bd d59d a1be 63a1 193f 0502 0dbf
000002d0: e864 9b3d 6099 17be 309e fc3e 67cb 5d3e
000002e0: d137 c03e 2d39 883e 4c1f 2ebe 0447 18be
000002f0: b72c 15bf 262b c43e 4d8f 0a3f 8ced 063f
00000300: cc5f ffbe d02c 013d a236 ffbe eb4b c7be
00000310: 14ee b3be aa09 9e3e 5dbe d7be 00c2 7cbc
-0.025558587 0.4252111 -0.58198076 -0.5203875 -0.27234524 0.1896159 -0.04838175 0.6209557
-0.027748799 0.24934603 -0.2136969 -0.13899273 -0.6755334 -0.46830416 -0.26123333 0.06630015
0.31209022 0.38973385 -0.47937673 -0.30791873 0.19644202 0.64525425 -0.19365592 0.59179944
-0.1320805 0.12034776 0.71535313 -0.59340954 -0.44515052 -0.17901486 -0.3351268 0.66703856
-0.45833224 -0.32550448 -0.4940134 -0.6622486 -0.4604468 0.65583545 0.31240994 0.3897875
0.037187874 -0.36252198 0.11963165 -0.6602219 -0.5109315 -0.36453474 0.47821894 0.3727844
-0.31359833 -0.025514126 0.41217995 0.74000084 0.34146345 0.07628814 0.523651 -0.38414186
0.13176513 -0.5482238 -0.4900859 -0.36527973 0.29913858 0.31344077 -0.3946284 0.25071418
0.44178072 -0.104379065 0.012777861 0.18864842 0.40024933 0.7173347 -0.5449132 -0.25913322
0.29884464 0.604094 0.6087159 0.63642114 0.14072454 -0.6148878 0.065048516 -0.4423698
-0.6096248 0.68455595 0.60330856 -0.6416289 0.13235062 -0.11911923 -0.11636233 -0.323683
0.3322825 -0.37569892 0.24039994 0.40342414 0.55264956 0.2354594 -0.6998485 -0.45869797
0.3860187 0.114904836 -0.5516027 -0.40716586 0.7015359 0.49998897 -0.30831632 -0.17796803
-0.6735886 -0.012709618 -0.53249305 -0.54543155 -0.03896129 0.10616857 -0.314629 0.438767
-0.3970092 0.69321805 0.518661 -0.5759533 -0.17598778 0.031906486 0.0980307 0.21501853
0.3389803 -0.011383754 -0.39751607 0.3880553 -0.6782914 -0.4191069 -0.17700994 -0.34444115
-0.24736956 -0.57956004 -0.15041232 0.15114862 -0.46065587 -0.03628826 0.562092 -0.123284966
0.06527664 -0.12392279 0.1249883 0.49598974 0.7235411 0.41100806 0.7186982 -0.104544766
-0.6352092 -0.33522323 0.52745885 -0.06511307 -0.35146484 -0.5418642 -0.66174734 -0.5968039
-0.16815042 0.42216715 0.38229102 -0.6819563 0.56128806 -0.4293902 -0.14948964 -0.28671244
-0.13619953 -0.13883525 -0.6345222 -0.6105428 -0.11064768 0.009144425 -0.3888669 0.30890346
-0.63643736 -0.04772067 0.67689586 -0.3538806 0.6825688 0.24892005 -0.5624331 0.52935827
-0.081596196 -0.3156573 0.6001188 -0.55081207 0.07587606 -0.14804602 0.49339437 0.21659623
0.37542585 0.26606122 -0.17004126 -0.1487084 -0.58271354 0.3831417 0.5412491 0.5270622
-0.49877775 0.031536877 -0.4984637 -0.38925108 -0.35142577 0.30866748 -0.42137423 -0.015427113

nn_model.0.bias f4 [100]
00000000: 0811 c03d e260 e93e 0ed6 08bf 23e0 f1be
00000010: 163b ccbe 2a67 fd3e e623 82be e6a0 2a3f
00000020: 5af1 b53e c05f b73d f7bf 9e3c 962e e2bd
00000030: 2011 1f3e 3041 e5bd 80ce a2bb 102e d43d
00000040: 2098 0dbf 7fc1 bdbe 6ec4 183f 1cd9 04bf
00000050: 10f9 4fbd 4312 333f 22c8 823e dba5 dc3d
00000060: 87df 1cbf 1afe e93e 73c4 ebbe 69f9 1fbe
00000070: 94f0 72be 1874 d6bd 8bc9 d63d 9ce0 2d3f
00000080: 663a 403e 297a 3a3f 2647 fd3e cae2 e4be
00000090: 4fbd d93e de43 d6be eb70 99be b4f7 543e
000000a0: e46b 943e 404f 1a3f 8c17 69be 005e 943a
000000b0: 28d5 e23e 1322 31bf 1e98 213f 5fb0 15bf
000000c0: d1ac c53d e835 f6bd 7849 86be 7067 bf3d
000000d0: 33b0 153f 74a9 53be b2f0 d6be bef8 91be
000000e0: 1dac 3bbf 96cb af3e c1df adbe 2e7a f8be
000000f0: f27d cdbe b778 fe3e e6b9 bf3e b1ef 0a3f
00000100: de51 833e 0ad0 71be 9457 4abe b7bd 973e
00000110: ec5f 2e3f f86c 953e 149f 72be 93c6 8fbe
00000120: ef25 2bbf ebb1 2c3e 762b cbbe 7864 21bf
00000130: e728 3a3f aa1c ebbe fe1f 0f3d 8871 4f3e
00000140: 008b b83c f49b f3be 6552 12bf 57d5 133f
00000150: d0d0 eb3d c56e 283f a400 21be 3d81 913e
00000160: 4894 25be 2c74 1fba 5f7f dcbe 30ce a53e
00000170: 6632 ac3e c0fc 6ebc b8d8 22be 5fdc babe
00000180: ae5d fa3e 52c1 06bf 37fc bd3e 3a79 73be
0.093782485 0.45581728 -0.5345162 -0.47241315 -0.3988883 0.4949277 -0.25418013 0.6665176
0.355357 0.0895381 0.019378645 -0.11044042 0.15533876 -0.11194074 -0.0049684644 0.10360348
-0.5531025 -0.37061688 0.5967473 -0.5189378 -0.050774634 0.6994974 0.25543314 0.10773822
-0.61278576 0.45701677 -0.46048316 -0.15622486 -0.23724586 -0.10471362 0.1048766 0.6792085
0.18772277 0.7284265 0.49468344 -0.44704276 0.42527243 -0.41848654 -0.29968962 0.20797616
0.28988564 0.60277176 -0.22762889 0.0011319518 0.4430325 -0.6919262 0.6312274 -0.58472246
0.09652103 -0.120220006 -0.26227927 0.09345901 0.58471984 -0.2067011 -0.4198051 -0.28510088
-0.733095 0.3433501 -0.33959773 -0.48530716 -0.4013515 0.49701473 0.37446517 0.5427199
0.25648397 -0.23614517 -0.19759971 0.29636928 0.68115115 0.291847 -0.23693496 -0.28081188
-0.6685476 0.16864745 -0.39681596 -0.6304393 0.7271866 -0.45920306 0.03494262 0.20258152
0.022527218 -0.4757992 -0.57156974 0.57747406 0.11514437 0.6579402 -0.157229 0.28418913
-0.16169846 -0.00060826796 -0.43065926 0.3238387 0.336322 -0.0145866275 -0.15902984 -0.36496255
0.48899597 -0.52638733 0.37106487 -0.23776713

nn_model.2.weight f4 [100, 100]
00000000: 9688 0bbc 4c2a 933c 03c5 54bd 5abc 443d
00000010: 612c e4bb d50f 98bd 4865 883c 420f 2e3e
00000020: 2df6 893d 583d 4ebc 3bfd 60bd d00d d23c
00000030: 21fa e13d cddf ebbd f679 1b3d 5458 ec3d
00000040: 90df 55bd c042 813a 3361 cc3d 0812 01bc
00000050: a8db 083c 5894 4c3c c800 a1bd 5135 a53c
00000060: 5dd1 8d3d 95c8 f13d 0cc7 99bc b9fa 69bd
00000070: fe49 3f3d 1743 47bd 91ca 8ebd 0c4c 9fbb
00000080: 571d 883d 76b9 f33d 0926 25bd c240 203d
00000090: d0fd db3d a909 cf3d 7913 b33d 69ab 9e3d
000000a0: b042 313d 1603 9dbd 9b26 a83d 1288 653d
000000b0: cdd5 c7bd c881 863d 3d52 833d 9a49 5f3d
000000c0: 2ca2 8bbd 4407 eb3c 3626 26bd 9705 a03d
000000d0: 4868 93bc 6276 1f3d 0082 913c a98b d83d
000000e0: 07f1 b23d ba7b 1c3c fe0b 8fbd bef1 7bbd
000000f0: 7536 17be ded3 07bd 4077 a4bd f9ae a13d
00000100: b29b 5d3d 8725 c03d d311 a43d 2984 e9bd
00000110: 205c 533b 431c 9f3c eac6 93bd 9b17 753c
00000120: 95d4 9abd 2a57 93bd 03db c5bd 708c 68bd
00000130: 8895 0f3e 9bae a73d 0602 dabc b521 9e3d
00000140: fb1a b63d 4cc4 d1bc 9239 343d e0d9 223e
00000150: de80 073d c7b5 953d cb81 0f3d 0be6 553e
00000160: 565b 0fbd 93eb 91bc 5043 3c3c a151 9ebc
00000170: 976a 1cbd 57d5 65bd f596 9dbd cd85 853d
00000180: 4599 913d 8078 3abc 2568 833d 814a 9e3d
00000190: a3f7 823d e093 f33b fa62 41bd 9338 bc3d
000001a0: 8a80 273d 1579 9bbd b502 c43d 0f85 9b3d
000001b0: a44b 15bd 2e42 663d f0ba 68bd 6061 80bc
000001c0: 5be5 ad3d 0065 873b 9ad6 90bd dce6 08bd
000001d0: 2c5e debc 180c 9ebc c0cb 1c3c b567 bd3d
000001e0: e070 af3b 47e7 7cbd 30f3 a73b e265 443d
000001f0: 962d 4b3d b32c bbbd f496 92bc 2d32 98bd
00000200: 3ac5 2ebd 8293 133d 466f 91bd 6242 183d
00000210: 6bd4 ad3d 80eb d63b 267f 88bd e6c0 12bd
00000220: 48e2 b23c 6b1f 9cbd 567e 4b3d 83ee b9bd
00000230: 75df c4bd 00ff c6bd 882f a6bc d9b6 893d
00000240: c2d6 c1bd 253a aa3d 70d9 23bd 44ee ef3c
00000250: 806e 953b 0dac b8bd b9d8 a93d e28b 5c3d
00000260: 0192 cb3d 56ef 4e3d a02e 87bd 39ec aa3d
00000270: 201c b03b 323d 423d f036 a4bd a89f ebbc
00000280: aa16 c9bd 4089 1fbd 18ba b03c 16cd a0bd
00000290: da90 023d 46e0 5b3d 903e 643c 3d07 89bd
000002a0: 15c9 9ebd a0bc fcbc 1acc 333d 9503 ca3d
000002b0: 2a88 6b3d c07f 38bc ce9c 0f3d f3eb c8bd
000002c0: 82eb aebd 621f 3f3d f000 68bd 8a0e 453d
000002d0: 2d93 90bd 1de1 4abd 06b1 a8bd f6be 553d
000002e0: e8f1 26bc 439d 9d3d 727d 7d3d 2ea6 623d
000002f0: 00bd 523b 5447 fdbc b81e b2bc 90be 593c
00000300: ea0a 4b3d 167b 8fbd 55e2 ab3d b024 32bc
00000310: 7b9c abbd 079e 5dbd ef35 b53d 914b bb3d
00000320: bbb3 bdbd f171 903d 5a46 4d3d 2673 723d
00000330: 835e ad3d 0ac1 5cbd 7e57 013d 369f 273d
00000340: 7411 f2bc ee12 093d e0b1 ebbc 663d 7d3d
00000350: 744a e3bc 76b2 18bd 9c3b ce3c 5248 113d
00000360: 731e 48bd f0d4 103c ba60 6d3d f003 23bc
00000370: 744f f93c 9494 c5bc 8e90 0f3d 1e5b 94bd
00000380: 4adb 70bd bae8 4fbd a336 bc3d 086f dcbc
00000390: 0026 8fb9 0a73 46bd 2773 cc3d a505 c83d
000003a0: 1a75 9abd 7306 a6bd aa3c 9bbd 00da fcb9
000003b0: 38d1 d0bc 0c0d 86bd 80e9 12bd acc5 9a3c
000003c0: 2003 56bd 3885 b53c 08db bbbc 277a 46bd
000003d0: a817 613c 0366 a83d 0676 8abd 0028 983b
000003e0: 1a0c 17bd b7f8 c83d 854e c2bd 7555 c4bd
000003f0: 8dce c93d 2d93 81bd 4c0f 9d3c 6867 0dbc
-0.008516451 0.017964505 -0.051945698 0.04803119 -0.006963298 -0.07424895 0.016649857 0.16998008
0.067364074 -0.012587868 -0.054929 0.025641352 0.110340364 -0.11517296 0.037958108 0.11540285
-0.05221516 0.0009861812 0.09979477 -0.007877834 0.008353151 0.01248654 -0.07861477 0.020167025
0.069246985 0.11805836 -0.01877167 -0.057123873 0.046701424 -0.048647966 -0.0697223 -0.0048613604
0.06646221 0.11900608 -0.040319476 0.039124258 0.1074177 0.101092644 0.087439485 0.07747538
0.04327649 -0.07666604 0.082104884 0.05603797 -0.09757576 0.065677226 0.0641217 0.05451355
-0.06818041 0.028689988 -0.040563785 0.07813566 -0.017994061 0.038931258 0.017762184 0.10573513
0.087373786 0.009550983 -0.06984709 -0.06150984 -0.14766867 -0.033161037 -0.08030558 0.078947015
0.05410356 0.09382158 0.08011212 -0.11402161 0.0032250956 0.019422656 -0.07215674 0.014959241
-0.07560078 -0.071943596 -0.09660914 -0.056774557 0.14021885 0.081876 -0.026612293 0.07721273
0.08891865 -0.025606297 0.044000216 0.15903425 0.03308188 0.07310062 0.03503589 0.20888536
-0.034999214 -0.017812526 0.011490658 -0.019326033 -0.03818759 -0.05611166 -0.076948084 0.06519661
0.07109312 -0.0113812685 0.06416348 0.07729054 0.06394889 0.0074333996 -0.047213532 0.09190478
0.04089407 -0.07591454 0.09570829 0.07593738 -0.03644909 0.056215458 -0.056818902 -0.015671432
0.08491012 0.004131913 -0.07072182 -0.03342329 -0.027144514 -0.019292876 0.009570062 0.09248296
0.005354032 -0.061744 0.0051254258 0.047948726 0.04960402 -0.09139385 -0.017894246 -0.07431445
-0.04266856 0.036029346 -0.07101302 0.037172683 0.08487781 0.0065588355 -0.06664877 -0.035828494
0.021836415 -0.0762318 0.04968103 -0.090786956 -0.096129335 -0.09716606 -0.020286337 0.067243285
-0.0946479 0.083118714 -0.040002286 0.029288419 0.0045602918 -0.09017191 0.0829329 0.05384434
0.099399574 0.050521217 -0.0660069 0.08345837 0.0053744465 0.04742164 -0.08018291 -0.028762653
-0.09818776 -0.03894925 0.021573111 -0.07851617 0.031876422 0.05368068 0.013930932 -0.06690834
-0.07753197 -0.030851662 0.04389582 0.098639645 0.057502903 -0.011260927 0.03506165 -0.09810629
-0.08541013 0.04666079 -0.05664152 0.04810957 -0.070593216 -0.04953109 -0.082368895 0.052184068
-0.010189511 0.07696011 0.061887212 0.055334263 0.003215611 -0.030917801 -0.021743163 0.013290063
0.049570955 -0.07005899 0.08392779 -0.010873005 -0.08379456 -0.054105785 0.08848178 0.091452725
-0.092627965 0.070529826 0.05011592 0.059191845 0.08465292 -0.053895034 0.03157758 0.04092332
-0.029549338 0.03346532 -0.02877134 0.061826132 -0.027745463 -0.03727957 0.025174908 0.03546936
-0.048857164 0.008839831 0.057953574 -0.009949669 0.030433394 -0.0241187 0.035049967 -0.07243942
-0.05880288 -0.050759055 0.091901086 -0.026908413 -0.00027303398 -0.048449554 0.09982901 0.097667016
-0.075418666 -0.08106699 -0.0757993 -0.00048227608 -0.025490388 -0.06545457 -0.035867214 0.018893085
-0.052249074 0.02215825 -0.02293159 -0.048456337 0.01373855 0.08222582 -0.067607924 0.0046434402
-0.036876775 0.098130636 -0.09487633 -0.09586612 0.098538496 -0.063269 0.019172333 -0.008630611

nn_model.2.bias f4 [100]
00000000: 1166 083e 2088 833c 789f b0bd 89ed 903d
00000010: 87e0 6dbd a94e 2e3e fc70 5e3c 04ca d63c
00000020: a79f a93d cf83 e93d 3168 afbd d79d d13d
00000030: 03a8 c63d b1da e23c 8824 243e b8df 973d
00000040: e854 00bd 0000 1339 372a 523a fb24 b53d
00000050: ea95 2b3d 5b72 e03d 0041 b7bd 7325 26bd
00000060: 18b6 9abd 6044 b33c dd3c 39bc 7422 b43d
00000070: 264a 553d 3907 32bd f0df 403c 6bf5 96bd
00000080: d0ef 3cbc 587d 843c 4921 923d dfa3 c33d
00000090: 3914 773d 098d fe3d b133 a03d 0ad5 663c
000000a0: 1ef3 ee3d 67b2 79bd 8e81 a53d d9b4 993d
000000b0: 9598 973d c26d c3bd adf3 e23d 3d25 b0bd
000000c0: c212 f6bc 3a1b 04bd ed05 86bd 6ba2 b3bc
000000d0: 1cbc 75bc da2e c0bd 05a5 2a3d 60d5 243e
000000e0: 30a5 443d 99fe 9fbc b8e0 e9bc 80eb b8bd
000000f0: 60c0 b1bb 8542 a83d 93f9 c7bd ef75 0a3e
00000100: d527 db3d 90af d43d e56f ba3b c82b c73d
00000110: fae8 113e baed bbbc 1151 9d3d 207b f0bb
00000120: 0743 b4bd 4c24 d2bc c02c 3c3b 0a03 8c3b
00000130: c86f 94bc d079 28bc 62df 0c3d ceaf 393d
00000140: a1c5 02bd 603a d2bb faa4 903d 9456 c43d
00000150: 5a0f d03d c63a 123e e3b7 a43d 53d2 573d
00000160: aa5f 62bd 3728 2abd 2a71 043d c078 abbc
00000170: a3df 203e d479 883c 49fb d33d 7727 833d
00000180: a8e3 0e3e 7794 a03d a3c6 6cbd c2b9 6c3d
0.13320185 0.01605612 -0.08624166 0.07076556 -0.058075454 0.17022194 0.013576742 0.026219375
0.082824044 0.114020936 -0.08564795 0.10235184 0.097000144 0.02769217 0.1602956 0.07415718
-0.031330973 0.00014019012 0.0008017155 0.08844944 0.041891016 0.109593116 -0.08947945 -0.040563058
-0.07554263 0.02188319 -0.011306015 0.08795634 0.052072667 -0.04346392 0.011772141 -0.073710285
-0.011531785 0.01617305 0.07135255 0.0955274 0.06032202 0.12429244 0.07822359 0.014088878
0.11667465 -0.060961153 0.08081351 0.07505197 0.074021496 -0.09542419 0.11081634 -0.08600853
-0.030038241 -0.032252528 -0.06544099 -0.021928033 -0.014998462 -0.09383936 0.04166128 0.16097021
0.048009098 -0.019530581 -0.028549537 -0.09029293 -0.005424544 0.082158126 -0.097643994 0.1352155
0.10700957 0.103850484 0.0056896084 0.097251475 0.1424903 -0.022940505 0.07681478 -0.0073388964
-0.08801847 -0.025652073 0.0028713197 0.004272823 -0.018119708 -0.010282949 0.034392722 0.045333676
-0.031926755 -0.0064156502 0.07062717 0.09586826 0.10159178 0.14280233 0.08042886 0.052690815
-0.055267014 -0.041542258 0.032334484 -0.020931602 0.1571031 0.016659655 0.10350663 0.06404012
0.13954031 0.078408174 -0.057806622 0.05779434

nn_model.4.weight f4 [100, 100]
00000000: 60c6 cabd 20d0 5bbd 2c07 82bc a180 ac3d
00000010: b408 a5bc 9e32 a4bd 2ac2 b6bd c050 f53a
00000020: d09d f43b 4847 c73c 586a e5bc baa0 083d
00000030: 68bd 2b3c e025 d7bc 46c7 513d cec9 93bd
00000040: 7311 54bd 7487 ca3c f407 eabc c075 1ebb
00000050: 1cbe 12bd 828b 693d 65e2 c03d 4365 af3d
00000060: 0486 d43c bcce 81bd 8632 0fbd e771 3abd
00000070: ac0e 9ebc 2727 4cbd 6e1c 743d 1849 c2bd
00000080: d006 8f3b 91fa 933d c06f a2bd 3886 8fbc
00000090: 6e8e 603d bc19 0fbd faf1 41bd 9e27 5a3d
000000a0: bbcb 8dbd 875c cc3d fbb4 b73d 30b1 923b
000000b0: 742e 843c a0a0 50bd a0df be3c 7bba 9abd
000000c0: f47a d5bc e1ba a33d dc0b ef3c 1765 943d
000000d0: d925 873d 199f c33d 8454 cf3c aa19 96bd
000000e0: ea5f b9bd c60e 7e3d 3959 a63d 7da4 c93d
000000f0: 8a26 8bbd 1b1b bb3d 8af4 11bd 84ca d53c
00000100: d5e6 8d3d 260a 9ebd b291 c4bd ad30 883d
00000110: e76b bebd c67c 463d e2fc 6c3d edd2 953d
00000120: 601d 1e3b 5846 d1bc 68a9 553c 68de 62bc
00000130: 9502 c1bd a843 c13c c365 70bd b196 973d
00000140: 7d4e 40bd 78be 9fbc 4bda 9ebd 37a5 bc3d
00000150: 46a2 6d3d a951 b33d 8608 6f3d ed7b 7cbd
00000160: 21a0 c13d c050 5cbc af6e bc3d 9073 653c
00000170: bbaf 813d 4a92 22bd cae7 203d 00b9 1dba
00000180: e373 a3bd 23a3 9e3d 73fa 5ebd 28b5 87bd
00000190: 8eee 933d c7e4 bbbd 9e74 0d3d 938c a63d
000001a0: b87a 82bc 1db3 d2bd 0959 b7bd 6024 a2bb
000001b0: 8c01 82bc c5fb 793d 3075 933d 2af3 68bd
000001c0: 687a d8bc f29b b0bd 77df 643c 5c43 853d
000001d0: f7cc 2bbd 4074 593b c144 79bc f09e b1bd
000001e0: 6f9f c73d 76ae 5b3c b91e c03d 4d0f b2bd
000001f0: b471 efbc ec04 d8bc a177 1a3d 67b9 07bd
00000200: c0a3 6bbd 7fc2 963d 37c8 a03d c3a9 cb3d
00000210: b243 763d 45b9 863d 7d4f 87bd 3b27 543c
00000220: be9c 21bd 5aa2 8dbc e86b 053c a4b7 cb3c
00000230: 37d7 89bd 1823 85bc a537 5fbd e8cd 0bbd
00000240: a6df 83bd e3f6 55bd 1bf5 93bd 3aca 8fbd
00000250: 390f 62bc b71d aebd 2470 d1bd 5ef5 803d
00000260: 4a5b 95bd 1161 8f3d 3dd6 72b9 159e b6bc
00000270: bdad 8d3d 587c a8bd 9e39 443d b5df 943d
00000280: c75c a33d d53b bfbd 5044 9b3b 55cf a8bc
00000290: 25a8 8bbd 5059 763d 6063 b2bc 3ae5 733d
000002a0: 6ea9 7ebd b537 58bd 1e01 1a3d e858 513c
000002b0: a2bf 6a3d c6bb 2e3d c5ef a33d aaca 9ebd
000002c0: 8318 763c 351d 983d 879a 39bd b3f0 7fbd
000002d0: b08c b83d 4082 abbd 3abb a5bd bff7 bbbd
000002e0: 41dd 883c 9c84 833c d1b3 c4bd 3219 5a3d
000002f0: b4db ea3c 12c0 0a3d 2d78 c8bd 8344 bbbd
00000300: 6cfe b7bd 5cd1 35bd d56f c4bd 967a 4f3d
00000310: bdd0 afbc fd87 21bd f9f4 b13d d040 583c
00000320: dead 55bc 4002 66bd 602a f1bc cbd8 acbd
00000330: 9306 7bbd 4fe8 db3d acc5 e0bd 2ea1 603d
00000340: b5bf 8c3d 6a46 043d 10b3 313d a06b d93d
00000350: 42cb 5b3d 8817 4b3b 4766 4abd 7644 04be
00000360: 6b7c cb3c 74ab b9bc 5928 4d3d 8800 b9bc
00000370: 7345 843d dcaa bbbc f1b6 923d b116 993d
00000380: 2472 fd3c 5064 05bc 9a8e a73d 7b6c 8dbd
00000390: 9906 903d 871f de3c 6878 553c 988e 24bc
000003a0: 78c1 ca3c 4b48 b43d 2049 c13c 12ea a2b9
000003b0: 0d98 fabd 3452 08be 0071 2fbb 60fb b9bd
000003c0: 36e2 d4bc c090 513c d27a 0d3d 55ac 69bd
000003d0: 80e1 abbb 00e3 bab9 bf94 2ebe c473 11bd
000003e0: e430 debb f3e1 2cbd e2f7 bcbc c960 673d
000003f0: cbf9 4b3d 2fb8 a33d 2311 a73a 6518 523d
-0.09901118 -0.05366528 -0.01587256 0.084229715 -0.020145752 -0.08017467 -0.089237526 0.0018716082
0.007465102 0.024325982 -0.02800481 0.033356406 0.01048217 -0.026263177 0.051215433 -0.072162256
-0.051774453 0.024722792 -0.028568245 -0.0024179071 -0.035825834 0.05701781 0.09418181 0.08564236
0.02594281 -0.063382596 -0.034960292 -0.045518782 -0.019294105 -0.049842026 0.059597425 -0.09486598
0.004364826 0.07225526 -0.07931471 -0.017520055 0.05482333 -0.03493665 -0.047349907 0.05326044
-0.06923624 0.09978586 0.08970066 0.004476689 0.016135432 -0.050934434 0.023299992 -0.075550996
-0.026059605 0.07994629 0.02918046 0.07245844 0.06599016 0.0955183 0.025308855 -0.07329114
-0.09051497 0.062025808 0.081224866 0.09845827 -0.0679446 0.09136029 -0.0356336 0.026097544
0.06928793 -0.077167794 -0.09598102 0.06649909 -0.092979245 0.048458837 0.057858355 0.073156215
0.0024126396 -0.025546238 0.013040878 -0.013846971 -0.094243206 0.023591831 -0.058690798 0.07401789
-0.046949852 -0.019500002 -0.0775648 0.092112 0.058016084 0.0875581 0.058357738 -0.061641622
0.0945437 -0.013446987 0.09200799 0.014004603 0.06332346 -0.039690293 0.03928355 -0.0006016642
-0.07981088 0.077459596 -0.054438066 -0.0662635 0.07223235 -0.09174495 0.034535043 0.08132281
-0.015927657 -0.102880694 -0.08952529 -0.004948184 -0.015869878 0.06103112 0.07200086 -0.056872524
-0.026425555 -0.08623494 0.013969294 0.065069884 -0.041943517 0.0033180863 -0.015214146 -0.08672893
0.097472064 0.013408294 0.0938086 -0.08694325 -0.029229023 -0.026369534 0.037711743 -0.033135798
-0.05752921 0.07361316 0.07850688 0.09944489 0.060123153 0.06578306 -0.06606958 0.012948806
-0.03945612 -0.01728933 0.008143403 0.02486784 -0.06730502 -0.016252086 -0.054496426 -0.034131914
-0.06439142 -0.052237403 -0.072244845 -0.070209935 -0.013797575 -0.085017614 -0.10226467 0.062968
-0.07292803 0.07000936 -0.00023158728 -0.022292176 0.069179036 -0.08226842 0.04790651 0.07269231
0.0797668 -0.09337584 0.004738368 -0.020606676 -0.068191804 0.06014377 -0.021775901 0.05954478
-0.0621733 -0.0527875 0.03759872 0.012777545 0.05731166 0.042659543 0.08004717 -0.07753499
0.0150204925 0.07427446 -0.045313384 -0.062485408 0.09011209 -0.083744526 -0.08092351 -0.09178113
0.016707065 0.016054444 -0.0960461 0.053246684 0.028669216 0.03387458 -0.09788547 -0.09143927
-0.08984074 -0.044389114 -0.09591643 0.050654016 -0.021461839 -0.03943633 0.08689303 0.013199046
-0.013041941 -0.05615449 -0.029439151 -0.084397875 -0.061285567 0.10737669 -0.10975203 0.054841213
0.06872503 0.032293715 0.043383658 0.10616231 0.05366064 0.0030989368 -0.049413946 -0.12916741
0.0248396 -0.022664763 0.050087307 -0.022583261 0.06458559 -0.02290862 0.071637996 0.07475031
0.030938216 -0.008141592 0.08181496 -0.06905457 0.070325084 0.027114643 0.013029195 -0.010043763
0.024750456 0.08802851 0.023594439 -0.00031073444 -0.12236033 -0.13312608 -0.0026770234 -0.09081149
-0.025986772 0.012790859 0.03454096 -0.057049114 -0.0052453876 -0.00035645813 -0.1704893 -0.035510793
-0.0067807306 -0.04220767 -0.023067418 0.056488786 0.049798768 0.079941146 0.0012746196 0.051292796

nn_model.4.bias f4 [100]
00000000: 58d3 d9bc f8ef 35bd 81bc 20bd 54cd 203d
00000010: 951c 88bd 8c82 ba3d 457e c03c d820 ebbc
00000020: 14e0 cbbd 62cd 7c3d bada 173d 57a8 493d
00000030: c3db a13d f8b8 cbbc ca14 413d 87d3 cd3c
00000040: 2d6e 15bd 9201 b2bd 224b b53d db1a 8f3d
00000050: 2984 803d 2803 d8bc 2516 203c d0fb f33d
00000060: 0359 5d3b 144f 04bd 464d 6bbd 135e 77bc
00000070: 973e 603d a0ad a63b f001 823d 35c7 703d
00000080: 1a6f a8bd 2a37 c3bd 2aa9 c2bd b01b ac3d
00000090: 0078 e5bc f8b2 b03d 7113 013e c55f 92bd
000000a0: 7a4f 293d cd1f 97bd 7a68 1c3d 5027 203c
000000b0: 3acd 5c3d 56aa ff3b 7764 ddbb a2ca adbd
000000c0: 5d8c 903d 5a31 373d 5692 803b 6321 263e
000000d0: 75e5 e43c df53 18bd fcae 5a3d 5e0f 043d
000000e0: aa19 26bc ffde d93c da5c 563b 1aea b83d
000000f0: 619c d23d 4022 38bb 9f5c 54bd 8b6d b6bd
00000100: 64cd bbbd bd38 123d 2057 c6bd fa2a 933d
00000110: d2fb babd 14d3 e3bc 61c9 953d 3b05 913d
00000120: 3b6b 9b3d 14fc e93b e0bc bf3d 7cb8 9f3d
00000130: cab8 bfbd 73fa b73b e2c2 11bd 0dc2 a53d
00000140: 9347 393d a5b4 cebc 7395 30bd 61f4 c43c
00000150: 94fe d43c 1f03 c0bd f177 71bc d9b8 d73d
00000160: 647e 873c 0917 343b f9c6 cfbd 226a 8bbd
00000170: 6eec 423d 1665 0d3d b378 94bd a1e1 d23b
00000180: 6d00 89bb 7d61 e53d 5290 c9bd 5f97 293d
-0.026590034 -0.044418305 -0.03924227 0.039258316 -0.066460766 0.09106931 0.02349771 -0.028702185
-0.09954849 0.061719306 0.03707383 0.049232807 0.07903244 -0.024868473 0.047138967 0.025125278
-0.036482025 -0.08691706 0.08852221 0.06987544 0.062752075 -0.026368693 0.009770905 0.11913264
0.003377498 -0.032301977 -0.05744674 -0.015098113 0.05474719 0.0050866157 0.06348026 0.05878373
-0.08224316 -0.09532006 -0.09504922 0.084037185 -0.028011322 0.086278856 0.12605073 -0.07147173
0.04133556 -0.073791124 0.038185574 0.009774998 0.053906657 0.007802288 -0.006756361 -0.08485915
0.07058022 0.0447248 0.0039236946 0.16223674 0.027941445 -0.03718936 0.053389534 0.032241218
-0.010137955 0.02659559 0.0032709152 0.09029026 0.10283733 -0.0028096586 -0.051846143 -0.089076124
-0.091700345 0.03569864 -0.096845865 0.071859315 -0.09130062 -0.02781061 0.073138006 0.07081076
0.07588812 0.0071406458 0.09362197 0.077988595 -0.093614176 0.0056145727 -0.035586245 0.08093653
0.045234274 -0.025232622 -0.043111276 0.02404231 0.026000299 -0.09375595 -0.014738069 0.10533304
0.01653976 0.002747955 -0.10145373 -0.068073526 0.04758876 0.03452023 -0.07249584 0.0064355885
-0.004180959 0.11200235 -0.0984198 0.041404124

allocation_head.weight f4 [12, 100]
00000000: b074 523c bfca 6e3d eaaf b43d 8daf 1bbe
00000010: 6889 b8bd b34e 523d d9c4 08be 7623 8cbd
00000020: dfb2 d7bd 6ad6 b6bd ca3c 393d e375 bb3d
00000030: 0297 86bd dc35 9abd 0183 e8bc 6552 243c
00000040: 7e8d df3b dcae a93d 24d4 f1bd f23b 083d
00000050: d0a6 56bc 8a46 0a3d b8be 87bc 3210 e2bd
00000060: 8d08 bcbd 50e6 aa3b 1871 c83c 492f 1f3e
00000070: 41d9 3bbd 40bd 99bc 9685 3e3b 2a87 c9bd
00000080: 8c0e c93c 7bd1 50bd 24de 5cbd 9022 2d3e
00000090: 6761 76bd b4b3 24be e6c6 f23d 6f83 d43d
000000a0: b8fe edbc 2374 f8bb fde6 6bbd 68c5 5c3c
000000b0: 66c8 8e3d 6032 2dbd f35c a83d 4708 40bd
000000c0: 3118 69bd 4866 963c c921 273d 6853 0b3e
000000d0: 00a3 f63d af89 8f3d f7db c53b 50e3 a23d
000000e0: 5be4 29bd ed4c 003e adb1 c83d f73b ca3d
000000f0: 9b0b febd c731 c83d bed0 4cbd cbe4 8f3d
00000100: 8a14 413b 4e21 d83d 343e b7bc e3d1 e73c
00000110: d9ac 17bd 8123 b83d 8342 bbbd e3a6 9d3d
00000120: af10 223e 329c 2fbd bfc2 033e 612d 8a3d
00000130: 5d46 b63d 07be f9bd f3db 17be 0d77 d7bd
00000140: d316 9a3c e9ef ea3c a82b 8d3c 893a 673d
00000150: 5708 f0b9 8800 173c 1ff1 72bc ec7b 61bd
00000160: cbff 063d 06dd 92bd 3c81 80bd ac60 863d
00000170: d0be 7dbd 45f2 aa3d 36ae 673d 64ad 4f3d
00000180: 708a af3d 1328 1b3e edc9 5abd 6ba0 9abc
00000190: 584c 4d3c 8692 9abd fa89 77bd 009d 3bbb
000001a0: 0673 7a3d 86e6 88bd 4044 14bd fa3b 7cbd
000001b0: 8376 a13d 1e55 abbd a068 0cbb d91a 9f3d
000001c0: 3983 b23d b812 84bc f253 90bd e0b0 b6bc
000001d0: cd36 aa3d 18be 66bc 4fe6 9c3d 5703 a33d
000001e0: 1ea5 353d aa5f 64bd 7e55 81bd 3df7 36bd
000001f0: d74e b2bd aa71 b8bd ea5d 183d dd98 91bd
00000200: 18fa 70bc 481c c83c 8af2 613d 09f6 a73d
00000210: fa5d b3bd 3a11 32bd 266f 81bd 187b 9f3c
00000220: b568 bcbd 3e60 303d 669b 123d 33ed 57bd
00000230: 9338 a63d 4696 01bd c3ca c13d 2ff4 c33d
00000240: 859b 8fbd d9fd c03d 9fec 943d 7eaa 8dbd
00000250: 158c a6bd 772f 61bd 5d9c b73d 1173 b73d
00000260: ae21 523d 77ad b33d ed5f 5cbd e4ca d73c
00000270: 7360 54bd 4a4c 26bd 24c5 f73c faf4 82bd
00000280: 4655 473d 0082 d139 7a75 a5bd 3098 08bd
00000290: aacf 02bd a8ca 793c a2a7 3c3d 07c3 72bd
000002a0: 93b3 71bd 2da8 29bd 06f3 593d 4e99 733d
000002b0: 803d c8bd f203 373d 92d6 473d d20e 363d
000002c0: bbde ba3d 18a9 b0bc 7dd9 8a3d 3411 8ebc
000002d0: 238d a03d facd 7d3d 8021 4c3a 62db 473d
000002e0: 4ac7 85bd 1225 623d 1d03 69bd e370 5ebd
000002f0: fa68 17bd f5cd 973d 32c2 8ebd 75fe 953d
00000300: 9e69 573d a7df b33d 4876 f4bc 000b a23b
00000310: ed42 bcbd 91ea bb3d a0a8 c13b 0ab0 613d
00000320: 48ae c53c ab65 51bd 9e02 9cbe 5910 473d
00000330: b335 1ebd 7281 863d 8e83 373d 8adc 1a3d
00000340: 4d47 4e3d c0de c9bc 3410 943c d16d b63d
00000350: 2eb2 93bd e847 d63d 2e24 a6bd 023f d03d
00000360: 77dd 2b3d 764f 1abe 8a2c 0d3e 9975 bb3d
00000370: 5f99 b03d 9083 183c 696a 0fbe 8cb6 943d
00000380: b7ec c83d 8236 1f3d b415 0b3e c5b1 77bd
00000390: 3f1d aebc e8e9 77bc 2b84 34be 6c24 183e
000003a0: 2ba8 c73d da66 a83c b351 813c ab91 f7bd
000003b0: c5bd 8bbd 22de 013e 77da 903d 4903 62bc
000003c0: eb44 cd3d 2c0b 07bc 8ec6 513d 5526 c7bd
000003d0: 621f 22be 1898 3fbd 0bb1 5f3c 5d20 ca3d
000003e0: 72fc 4bbd 9ae8 87bd c705 70bd f32f 2cbd
000003f0: 96e5 ecbb ef00 0abe 4c38 763a 6e02 a0bd
0.012845203 0.058298822 0.088226154 -0.15203686 -0.09010583 0.051344585 -0.13356341 -0.06842701
-0.10532164 -0.08927615 0.04522399 0.091533445 -0.06571771 -0.07529804 -0.02838278 0.01002941
0.006822287 0.08285305 -0.11808041 0.033260293 -0.013101295 0.033758678 -0.016570434 -0.11038245
-0.091813184 0.0052154437 0.02446799 0.15545382 -0.045861486 -0.018767 0.0029071323 -0.098402336
0.02454307 -0.050981026 -0.053922787 0.16907716 -0.060151484 -0.16084176 0.11854343 0.103766315
-0.029052123 -0.007582204 -0.057593334 0.0134748 0.06971817 -0.04228437 0.08220854 -0.046882894
-0.056907836 0.018359318 0.040803704 0.13606036 0.120428085 0.07008683 0.0060381847 0.07953513
-0.041477542 0.12529345 0.09799514 0.09874719 -0.12404557 0.09775119 -0.05000376 0.07026061
0.0029461705 0.10553227 -0.022368528 0.028298324 -0.037030075 0.08991147 -0.091435455 0.07697847
0.15826677 -0.04287357 0.12867258 0.067469366 0.089001395 -0.12194448 -0.14829998 -0.10520754
0.018809712 0.028678851 0.017232731 0.056452308 -0.0004578258 0.009216435 -0.014827996 -0.05504982
0.032958787 -0.07171063 -0.062746495 0.065614074 -0.06194955 0.083469905 0.056562625 0.050702468
0.08571327 0.15152006 -0.053415228 -0.018875321 0.012530409 -0.075474784 -0.06043432 -0.0028627515
0.06114485 -0.06684594 -0.0361979 -0.061580636 0.078839324 -0.08365844 -0.0021424666 0.07768793
0.08716435 -0.016122207 -0.07047261 -0.022301137 0.08311234 -0.014083408 0.076611154 0.079596214
0.04434692 -0.055755295 -0.063151345 -0.04466938 -0.08706444 -0.09006055 0.03719894 -0.071092345
-0.0147080645 0.024427548 0.055162944 0.08201224 -0.08758159 -0.04347346 -0.06320028 0.019467875
-0.09199659 0.043060534 0.03579273 -0.052716445 0.081162594 -0.031637453 0.09462502 0.09568059
-0.07012085 0.094234176 0.072716944 -0.069172844 -0.08132187 -0.054976907 0.08965371 0.08957494
0.05130165 0.0877332 -0.05380242 0.026341863 -0.051849794 -0.0406001 0.030245371 -0.06394382
0.048665307 0.00039960444 -0.080790475 -0.033348262 -0.031936325 0.015246071 0.046058305 -0.059268024
-0.059009146 -0.04142015 0.05321028 0.059472375 -0.09777355 0.044681497 0.048788615 0.044447728
0.09124514 -0.021565005 0.06779764 -0.017342187 0.0783942 0.061964013 0.00077869743 0.048793204
-0.06532152 0.055211134 -0.056887735 -0.054306876 -0.036965348 0.0741233 -0.069706336 0.073239245
0.05259096 0.08782893 -0.029841557 0.004945159 -0.091924526 0.09175599 0.0059099942 0.055099525
0.024130955 -0.05112235 -0.30470747 0.048599575 -0.03862543 0.065676585 0.044803195 0.03780798
0.050360966 -0.024642348 0.018074133 0.089076646 -0.072117195 0.10462934 -0.081123695 0.10168268
0.041959252 -0.15069374 0.13786522 0.09153289 0.08623003 0.009308711 -0.14005436 0.072613806
0.09810775 0.038870342 0.13582498 -0.06047227 -0.02125418 -0.015131451 -0.17628543 0.14857644
0.09748872 0.020556856 0.015786028 -0.12088331 -0.06823305 0.12682393 0.07072919 -0.013794729
0.10022911 -0.00824241 0.051214747 -0.09724108 -0.15832284 -0.046775907 0.01365305 0.09869454
-0.049801297 -0.06636162 -0.05859926 -0.042037915 -0.007229517 -0.13476919 0.0009392544 -0.078129634

allocation_head.bias f4 [12]
00000000: 979f 7d3d 8256 733d 74fa ad3c 5cd1 de3c
00000010: af7d 1c3d c2de 6f3d 9adc 9b3d 6e67 173b
00000020: 9f14 95bd afb7 ac3b 4c49 c43c dffd 873d
0.061919775 0.059408672 0.02123759 0.02719944 0.0382058 0.058562048 0.07610436 0.002310242
-0.07279324 0.00527092 0.023960732 0.06640219

fractional_payment_head.0.weight f4 [2, 100]
00000000: 40b0 b13c 2450 1ebd 70dc f93d 7d54 f43d
00000010: e010 4bbd 562a 023e 21f0 99bc 872c c23d
00000020: 3f27 133e 0c11 04bd 2b5c bf3d bdf3 cb3c
00000030: afa8 b03d bcbf 2e3e 9a50 d23c ab02 62bd
00000040: 9600 8fbd a7b6 9fbd 7a57 873b 6cc3 513d
00000050: 6f9a b43d 9411 01bd c150 c7bd cae0 183e
00000060: 27c4 0bbd f758 b4bd ef3c 093e 0e15 b63d
00000070: 5d30 ccbc 2f69 c23d a4af 07bd fde6 103e
00000080: a087 5d3b 4119 7dbc 7d2a 9ebd 3736 d3bc
00000090: ecdc e83c b37d 313e 806d c23c bcfd bf3b
000000a0: d985 0b3e f369 b53c d692 8fbd c025 43bb
000000b0: 0f57 97bd e9d1 5fbb 55f6 77bd 4096 abbc
000000c0: b49b b53d 5479 873c 0293 f33d c082 6d3d
000000d0: 6950 a13b b840 3abd 0797 d23d a5ce c7bb
000000e0: 0917 e73d e773 033e 56e7 dcbd e7c5 bfbd
000000f0: 82a7 5e3e 9b41 aebd 1ae4 e83d ef7f bcbd
00000100: cf9b 82bb 78b9 8c3d db06 a0bd 0138 9b3d
00000110: 477d f03d 7331 f5bd a12e 98bd 18df 1a3c
00000120: 716c bbbd efc5 40bd 0ece 78bc d27b 6c3d
00000130: 87d3 4ebd 49d9 16bd 6d0f be3d fe54 a3bd
00000140: 6862 8e3d f62e cebb 7077 4a3c be69 a73d
00000150: 7229 eb3b b5c2 003c 0ae4 c53d 782e fb3d
00000160: b46d 993c 4a52 5a3d 765e c0bd a137 223d
00000170: 42fd 6f3d 33b4 59bd 4119 a73d dd10 f63d
00000180: 3dcc b8bd 5051 733d 9be1 773d 8f95 8bbd
00000190: f039 49bc 8ced 87bd f3f5 3dbd a71d edbd
000001a0: c0ff 44bd f142 b0bb 425c 153d 2684 613d
000001b0: 85da ccbd 45ca 87bd d0d3 f83b 37e1 17bd
000001c0: b02c 15bd 56d7 0bbd 7607 3cbd 02fb 2e3d
000001d0: c594 c13c 0eee 803d 40cf c2bc dbd9 c53d
000001e0: a773 8a3d b1bc ca3d 3586 2b3e fdc1 c53c
000001f0: 32bd 973d ee19 80bd e4d9 39be 88a8 0d3e
00000200: 37b8 4fbd 3017 dd3b 4403 2b3e 6c8c b4bd
00000210: 689a 883c 1bf1 c2bc 6888 a13c d297 593e
00000220: 903d 0ebc 82f9 d3bd 922b cf3d d0ff d4bb
00000230: cd34 6abd ae02 b43d e2a8 4b3d baba 763d
00000240: c189 063e ad68 8fbd d721 5cbd 80dc 903c
00000250: e086 383e 2b6f a9bd 7bd2 61bc c54f 723d
00000260: f580 0c3d 629b 87bd 4154 a03d 7093 c23d
00000270: 6d14 0ebd 5a97 cd3b aef6 143e 9af8 bd3d
00000280: 493f 323d 2706 c93d fe3e 3cbd fdfa 23bd
00000290: 0935 8cbd 30a3 83bc 8048 aebb 6b75 08bd
000002a0: 193b bf3d 7e62 95bd 9e2d 923c aaef 643d
000002b0: be27 933d 4214 7dbd 6b01 a83d 97f1 9abd
000002c0: cd23 4fbd 7ff5 023d fa2d 82bd 68c5 29bc
000002d0: 97c7 803d f422 073e d69e 403d 852e 1cbd
000002e0: a7ac 8e3d dbb7 963d 3390 2ebd 23db aa3d
000002f0: fb69 2b3d d707 c0bd 7f0f eb3b 6b7a d3bd
00000300: ce9b 133d 7151 b03d c2d6 99bd 7d0c ad3d
00000310: 46e6 163e 855c a3bc e87a 0bbd 64af 023e
0.021690488 -0.038650647 0.12200248 0.11930177 -0.04957664 0.12711462 -0.01879126 0.09481149
0.1437044 -0.03224282 0.093437515 0.024896497 0.08625924 0.17065328 0.0256732 -0.055178326
-0.06982534 -0.0779851 0.004130301 0.05121176 0.08818518 -0.031510904 -0.097321995 0.149295
-0.034122612 -0.08806031 0.1340215 0.088907346 -0.024925405 0.094927184 -0.03312649 0.14150615
0.0033802763 -0.0154479155 -0.07722948 -0.025782688 0.028425656 0.17333107 0.023733854 0.005859105
0.13625278 0.022145247 -0.070104286 -0.002977714 -0.07389652 -0.0034152216 -0.060537655 -0.020945668
0.08867589 0.016537346 0.11893274 0.05798602 0.0049229157 -0.045471877 0.102827124 -0.006097632
0.112836905 0.12837182 -0.10786311 -0.09363919 0.21743587 -0.08508607 0.11371632 -0.09204089
-0.003985859 0.06871313 -0.078138076 0.07579041 0.11742645 -0.11972322 -0.07430769 0.009452604
-0.09151543 -0.047063764 -0.015185846 0.05773527 -0.050494697 -0.036828313 0.09280286 -0.07975195
0.06952363 -0.0062922193 0.012357578 0.081744656 0.0071765715 0.007858922 0.096626356 0.122647226
0.018729068 0.053301133 -0.09393017 0.039603833 0.058591135 -0.053150367 0.08159114 0.12014935
-0.0902333 0.059403718 0.06051789 -0.068156354 -0.01228188 -0.06637105 -0.046377134 -0.11577921
-0.048095465 -0.005379074 0.036464937 0.055057667 -0.10002617 -0.06630377 0.0075936094 -0.037080016
-0.03641957 -0.034140907 -0.045905553 0.04271985 0.02363051 0.06295405 -0.023780465 0.09660693
0.0676034 0.09899271 0.16750415 0.024140352 0.07409133 -0.06254946 -0.18149525 0.13833821
-0.05071279 0.006747149 0.16700464 -0.08815846 0.01667519 -0.023796609 0.019718364 0.21249321
-0.00868167 -0.10350324 0.10115732 -0.006500222 -0.05717926 0.087895736 0.049721606 0.06023667
0.13138486 -0.07002387 -0.05374321 0.017683268 0.180202 -0.08273157 -0.013783093 0.059158105
0.03430267 -0.06621434 0.0782857 0.09500778 -0.03468745 0.006274146 0.14547226 0.092759326
0.043517385 0.098156266 -0.04595851 -0.040034283 -0.06846053 -0.016069025 -0.0053187013 -0.033315104
0.09337444 -0.072941765 0.017844018 0.055892624 0.071853146 -0.061786897 0.082033955 -0.07565611
-0.05057125 0.031972405 -0.063564256 -0.010362007 0.06288069 0.13196927 0.047026478 -0.038130302
0.069665246 0.073592864 -0.042617988 0.08342578 0.041849118 -0.09376495 0.007173478 -0.10326084
0.03603726 0.08609284 -0.07511665 0.084496476 0.1473628 -0.019941578 -0.03405276 0.12762219

fractional_payment_head.0.bias f4 [2]
00000000: 6a03 c23d 6abe ce3d
0.094733074 0.10094912
