quota/result/2x1-pv_1.0_0/9_checkpoint.pt (torch_old, 90354 bytes, 10 tensors)

nn_model.0.weight f4 [100, 2]
000000 02 f7 9e bc 30 60 d4 3e b1 fc 14 bf 1d 38 05 bf
       -0.019404892 0.41479635 -0.58198076 -0.5203875
000010 d6 70 8b be ac 2a 42 3e 7c 67 31 bd 60 c1 1d 3f
       -0.27234524 0.1896159 -0.04331158 0.6162319
000020 25 04 cb bc 8b 72 7f 3e 5c d3 5a be 1c 54 0e be
       -0.02478225 0.24946038 -0.2136969 -0.13899273
000030 c2 ef 2c bf 90 c5 ef be 86 d0 84 be 4b 21 82 3d
       -0.6755334 -0.46830416 -0.2594034 0.063540064
000040 22 9a 9d 3e cf 5a c6 3e de 70 f5 be 86 a7 9d be
       0.30781657 0.38741156 -0.47937673 -0.30791873
000050 b7 72 5a 3e 75 6e 24 3f 23 c0 37 be 87 6d 15 3f
       0.21332823 0.64231044 -0.17944388 0.5837025
000060 e7 fa 03 be 1d e5 e5 3d 91 11 39 3f 84 77 16 bf
       -0.1288868 0.112253405 0.7229243 -0.58776116
000070 c5 ea e3 be ac 4f 37 be 6f 86 a5 be 9f e5 28 3f
       -0.44515052 -0.17901486 -0.32329127 0.65975374
000080 86 aa ea be 86 a8 a6 be 53 ef fc be 20 89 29 bf
       -0.45833224 -0.32550448 -0.4940134 -0.6622486
000090 b8 eb e7 be 49 73 25 3f 88 6d a3 3e d1 4f c6 3e
       -0.45297027 0.64629036 0.31919503 0.3873277
0000a0 50 52 18 3d 7b 9c b9 be 70 01 f5 3d 4d 04 29 bf
       0.037187874 -0.36252198 0.11963165 -0.6602219
0000b0 68 cc 02 bf 4c a4 ba be bd 0d f1 3e 87 8a be 3e
       -0.5109315 -0.36453474 0.47080794 0.37215063
0000c0 f6 8f a0 be 00 03 d1 bc f1 93 d0 3e 06 1b 3a 3f
       -0.31359833 -0.025514126 0.4073787 0.72697484
0000d0 da fe ab 3e 09 d2 a4 3d b8 5e 06 3f c0 0d c4 be
       0.33592874 0.080478735 0.5248828 -0.3829174
0000e0 70 ed 06 3e 65 58 0c bf 8a ec fa be f2 05 bb be
       0.13176513 -0.5482238 -0.4900859 -0.36527973
0000f0 be 81 99 3e 23 4b 9c 3e 4c 17 c9 be 93 3e 7d 3e
       0.29981798 0.30526075 -0.39275587 0.24730901
000100 83 4e dd 3e b3 60 d4 bd d4 bc 65 3c db 11 3e 3e
       0.43223962 -0.103700064 0.014022071 0.18561499
000110 54 06 ce 3e aa 0f 34 3f 6e 7f 0b bf 1c ad 84 be
       0.40239203 0.703364 -0.5449132 -0.25913322
000120 08 8b 99 3e f4 9e 19 3f 24 70 19 3f b2 41 1f 3f
       0.29988885 0.6000817 0.5993674 0.6220962
000130 18 1a 10 3e 49 69 1d bf 28 38 85 3d 4b 7e e2 be
       0.14072454 -0.6148878 0.065048516 -0.4423698
000140 80 3e 12 bf f4 a4 32 3f 4e c2 1c 3f d3 d8 1d bf
       -0.5712662 0.6978295 0.61233985 -0.6165897
000150 ec 86 07 3e c8 f4 f3 bd 60 4f ee bd c7 b9 a5 be
       0.13235062 -0.11911923 -0.11636233 -0.323683
000160 ae e6 a9 3e 0e 6e bd be 83 22 76 3e 9d 54 cc 3e
       0.33183807 -0.36998028 0.24036603 0.39908305
000170 90 65 0c 3f b8 46 71 3e 45 29 33 bf 76 da ea be
       0.5484247 0.23562133 -0.6998485 -0.45869797
000180 04 3f c1 3e 7f c2 e9 3d d6 35 0d bf 0b 78 d0 be
       0.3774339 0.1141405 -0.5516027 -0.40716586
000190 4b a1 32 3f c3 ee fe 3e a3 db 9d be 40 3d 36 be
       0.69777364 0.49791536 -0.30831632 -0.17796803
0001a0 4d 70 2c bf 00 3c 50 bc 77 51 08 bf 67 a1 0b bf
       -0.6735886 -0.012709618 -0.53249305 -0.54543155
0001b0 e0 95 1f bd e8 6e d9 3d e5 d1 95 be 66 b9 ea 3e
       -0.03896129 0.10616857 -0.292617 0.45844573
0001c0 96 51 d5 be ca a6 2e 3f 31 7b 0b 3f 27 b0 0b bf
       -0.41663808 0.6822325 0.5448485 -0.5456566
0001d0 24 36 34 be 60 b0 02 3d cb 36 ca 3d 0e 5c 5b 3e
       -0.17598778 0.031906486 0.09873732 0.21421835
0001e0 b4 a6 aa 3e f4 2b c7 bb 2b 40 c9 be 40 58 c4 3e
       0.3333031 -0.0060782377 -0.3930677 0.3834858
0001f0 81 a4 2d bf 2e 95 d6 be 18 42 35 be 97 5a b0 be
       -0.6782914 -0.4191069 -0.17700994 -0.34444115
000200 72 4e 7d be 0c 5e 14 bf b0 05 1a be b4 c6 1a 3e
       -0.24736956 -0.57956004 -0.15041232 0.15114862
000210 16 db eb be 00 a3 14 bd cc c5 0c 3f 19 53 fd bd
       -0.46065587 -0.03628826 0.54989314 -0.12369365
000220 c2 d6 79 3d da 57 fe bd bf e6 03 3e ef e5 fb 3e
       0.060995825 -0.124191 0.12880991 0.49198863
000230 ab 4c 37 3f 73 fd d2 3e cc 15 36 3f b5 e7 c2 bd
       0.7160136 0.4120899 0.7112701 -0.09516851
000240 12 9d 22 bf 61 a2 ab be 65 b1 02 3f b7 3b 81 bd
       -0.6352092 -0.33522323 0.5105193 -0.06310218
000250 33 f3 b3 be 9d b7 0a bf 46 68 29 bf 24 c8 18 bf
       -0.35146484 -0.5418642 -0.66174734 -0.5968039
000260 55 65 28 be 08 c6 d5 3e a6 bb c3 3e b0 94 2e bf
       -0.16444905 0.41752648 0.38229102 -0.6819563
000270 42 fd 11 3f 0a 2d cc be d0 13 19 be f9 cb 92 be
       0.57027066 -0.39878112 -0.14948964 -0.28671244
000280 e4 77 0b be d4 2a 0e be 0c 70 22 bf 88 4c 1c bf
       -0.13619953 -0.13883525 -0.6345222 -0.6105428
000290 40 9b e2 bd 80 d2 15 3c d6 b0 c4 be 6c 99 9b 3e
       -0.11064768 0.009144425 -0.38416165 0.3039049
0002a0 8f ed 22 bf c0 76 43 bd a8 61 2b 3f 1a c7 b3 be
       -0.63643736 -0.04772067 0.66945887 -0.3511284
0002b0 d6 4c 2c 3f ce a3 7e 3e ff 79 00 bf 08 62 12 3f
       0.6730474 0.24867174 -0.5018615 0.57180834
0002c0 e8 1b a7 bd d5 9d a1 be 86 3e 1a 3f 5f 31 0e bf
       -0.081596196 -0.3156573 0.60251653 -0.55544084
0002d0 e8 64 9b 3d 60 99 17 be bd 19 fd 3e 51 5f 5e 3e
       0.07587606 -0.14804602 0.494337 0.21716048
0002e0 68 e4 be 3e 54 86 87 3e 4c 1f 2e be 04 47 18 be
       0.37283635 0.26469672 -0.17004126 -0.1487084
0002f0 b7 2c 15 bf 26 2b c4 3e 95 c1 09 3f 99 e9 04 3f
       -0.58271354 0.3831417 0.5381101 0.5191894
000300 cc 5f ff be d0 2c 01 3d a2 36 ff be eb 4b c7 be
       -0.49877775 0.031536877 -0.4984637 -0.38925108
000310 e0 c5 ab be 37 70 9f 3e 5d be d7 be 00 c2 7c bc
       -0.33549404 0.311403 -0.42137423 -0.015427113

nn_model.0.bias f4 [100]
000000 ce 6e e3 3d e2 60 e9 3e 0e d6 08 bf b6 d0 ef be
       0.11105119 0.45581728 -0.5345162 -0.4683892
000010 75 88 d0 be 2a 67 fd 3e e6 23 82 be cc 34 2d 3f
       -0.40729108 0.4949277 -0.25418013 0.67658687
000020 23 88 b8 3e c0 5f b7 3d e1 c3 28 3d 97 be be bd
       0.36041364 0.0895381 0.04120243 -0.09313696
000030 be 0d 2e 3e b9 6a 95 bd 80 ce a2 bb ef 4c fe 3d
       0.1699743 -0.07295746 -0.0049684644 0.12417018
000040 20 98 0d bf 7f c1 bd be 27 da 1c 3f 55 fc 04 bf
       -0.5531025 -0.37061688 0.61270374 -0.5194753
000050 10 f9 4f bd 43 12 33 3f 22 c8 82 3e fb e0 e2 3d
       -0.050774634 0.6994974 0.25543314 0.11078068
000060 87 df 1c bf 4d e5 f6 3e 10 2d f5 be a7 e5 16 be
       -0.61278576 0.48221818 -0.47885942 -0.14736043
000070 94 f0 72 be 18 74 d6 bd 60 7c 06 3e 4e 99 30 3f
       -0.23724586 -0.10471362 0.13133383 0.68983924
000080 51 78 43 3e ba 57 3e 3f 00 1b 01 3f ca e2 e4 be
       0.19088866 0.7435261 0.50431824 -0.44704276
000090 01 5f e0 3e 39 a2 d2 be eb 70 99 be b4 f7 54 3e
       0.43822482 -0.4113939 -0.29968962 0.20797616
0000a0 55 01 a4 3e db ce 1e 3f 8c 17 69 be 00 5e 94 3a
       0.32032266 0.62034386 -0.22762889 0.0011319518
0000b0 55 f2 e3 3e 3e e9 34 bf 99 85 22 3f 5f b0 15 bf
       0.44520822 -0.706684 0.63485104 -0.58472246
0000c0 79 69 cd 3d e8 35 f6 bd 17 82 84 be 70 67 bf 3d
       0.10029883 -0.120220006 -0.258805 0.09345901
0000d0 33 b0 15 3f 74 a9 53 be b2 f0 d6 be e1 2f 9d be
       0.58471984 -0.2067011 -0.4198051 -0.3070059
0000e0 11 ef 3b bf 3f c2 c3 3e c1 df ad be a6 dc fc be
       -0.7341166 0.38234136 -0.33959773 -0.4938709
0000f0 1d 30 d4 be fc 86 02 3f e6 b9 bf 3e b1 ef 0a 3f
       -0.41442958 0.5098722 0.37446517 0.5427199
000100 de 51 83 3e 0a d0 71 be 94 57 4a be a0 e0 97 3e
       0.25648397 -0.23614517 -0.19759971 0.29663563
000110 ca 68 2f 3f ef 36 97 3e 58 70 81 be 9d c2 93 be
       0.6851927 0.29534099 -0.25281024 -0.28859416
000120 ef 25 2b bf ec e7 1f 3e 76 2b cb be 78 64 21 bf
       -0.6685476 0.15615815 -0.39681596 -0.6304393
000130 84 2c 3e 3f aa 1c eb be b8 44 4f 3d 88 71 4f 3e
       0.74286675 -0.45920306 0.050602645 0.20258152
000140 00 8b b8 3c f4 9b f3 be 65 52 12 bf 3b 99 15 3f
       0.022527218 -0.4757992 -0.57156974 0.58436936
000150 d0 d0 eb 3d 29 76 26 3f 73 3b 2b be 55 05 b8 3e
       0.11514437 0.6502405 -0.16721897 0.35941568
000160 48 94 25 be 28 5c 70 3d 5f 7f dc be dc 0e aa 3e
       -0.16169846 0.058681637 -0.43065926 0.33214462
000170 8a 36 af 3e c0 fc 6e bc b8 d8 22 be 78 cf c5 be
       0.34221298 -0.0145866275 -0.15902984 -0.3863485
000180 ae 5d fa 3e 52 c1 06 bf 90 11 c8 3e 3a 79 73 be
       0.48899597 -0.52638733 0.390759 -0.23776713

nn_model.2.weight f4 [100, 100]
000000 5d a3 55 bc 4c 2a 93 3c 03 c5 54 bd c7 85 16 3d
       -0.013039437 0.017964505 -0.051945698 0.036748674
000010 a6 1f 41 bd d5 0f 98 bd 48 65 88 3c d0 02 37 3e
       -0.047149323 -0.07424895 0.016649857 0.17872167
000020 66 c0 88 3d 58 3d 4e bc 9e be 6e bd 07 b0 86 3c
       0.06677322 -0.012587868 -0.058287255 0.016441358
000030 45 af d3 3d b7 eb ca bd f6 79 1b 3d 22 b2 db 3d
       0.103361644 -0.0990824 0.037958108 0.107273355
000040 90 df 55 bd c0 42 81 3a 93 6b c2 3d 41 4a 5d bc
       -0.05221516 0.0009861812 0.094931744 -0.013506473
000050 a8 db 08 3c 58 94 4c 3c c8 00 a1 bd fb 0d 9e 3c
       0.008353151 0.01248654 -0.07861477 0.019293776
000060 5d d1 8d 3d 81 fb ee 3d 24 7d b6 bc 17 2e 41 bd
       0.069246985 0.11669064 -0.022276469 -0.047163095
000070 fe 49 3f 3d 17 43 47 bd 03 46 91 bd 43 aa d0 bb
       0.046701424 -0.048647966 -0.07093432 -0.006367953
000080 b8 f9 8f 3d b1 1d f8 3d 92 44 2a bd c2 40 20 3d
       0.07030052 0.12115038 -0.0415693 0.039124258
000090 15 3b d9 3d 4f d8 c8 3d 79 13 b3 3d 69 ab 9e 3d
       0.10606972 0.098068826 0.087439485 0.07747538
0000a0 63 b4 05 3d fd 2a 81 bd 9b 26 a8 3d 12 88 65 3d
       0.032642733 -0.063070275 0.082104884 0.05603797
0000b0 53 f6 a9 bd fd bd 66 3d 51 24 86 3d 9a 49 5f 3d
       -0.08298936 0.05633353 0.065498956 0.05451355
0000c0 27 77 8a bd 44 07 eb 3c 49 a9 2d bd 97 05 a0 3d
       -0.06761008 0.028689988 -0.04239777 0.07813566
0000d0 48 68 93 bc 62 76 1f 3d 00 82 91 3c aa 12 f8 3d
       -0.017994061 0.038931258 0.017762184 0.12112935
0000e0 5a 83 24 3e 86 9d f0 3c fe 0b 8f bd c7 1c a4 bd
       0.16065732 0.029371988 -0.06984709 -0.08013301
0000f0 2f aa 18 be 2e 24 1c bd 40 77 a4 bd f9 ae a1 3d
       -0.1490867 -0.03812044 -0.08030558 0.078947015
000100 b2 9b 5d 3d 87 25 c0 3d d3 11 a4 3d e3 a7 e1 bd
       0.05410356 0.09382158 0.08011212 -0.1101835
000110 12 3e 78 3c fb 6c 8d 3c 44 a8 96 bd 3e 38 89 3c
       0.0151515175 0.01726388 -0.07356313 0.016750451
000120 95 d4 9a bd 7a 6a 8d bd 03 db c5 bd 70 8c 68 bd
       -0.07560078 -0.069050744 -0.09660914 -0.056774557
000130 69 a4 0e 3e 9b ae a7 3d 2d c4 70 bc b5 21 9e 3d
       0.13929905 0.081876 -0.014695209 0.07721273
000140 fb 1a b6 3d 4c c4 d1 bc 92 39 34 3d c1 7a 1f 3e
       0.08891865 -0.025606297 0.044000216 0.1557417
000150 de 80 07 3d 22 98 a3 3d 07 34 0d 3d 03 98 53 3e
       0.03308188 0.079880014 0.034473445 0.20663457
000160 56 5b 0f bd af 2f 59 3a 50 43 3c 3c af 5c 98 bc
       -0.034999214 0.00082849985 0.011490658 -0.018598882
000170 5b 75 1b bd 57 d5 65 bd f5 96 9d bd 66 f7 7e 3d
       -0.037953716 -0.05611166 -0.076948084 0.062247656
000180 45 99 91 3d 80 78 3a bc b3 d4 53 3d 81 4a 9e 3d
       0.07109312 -0.0113812685 0.051716518 0.07729054
000190 a3 f7 82 3d e0 93 f3 3b fa 62 41 bd 93 38 bc 3d
       0.06394889 0.0074333996 -0.047213532 0.09190478
0001a0 8a 80 27 3d 15 79 9b bd b5 02 c4 3d 0f 85 9b 3d
       0.04089407 -0.07591454 0.09570829 0.07593738
0001b0 a4 4b 15 bd 2e 42 66 3d f0 ba 68 bd 60 61 80 bc
       -0.03644909 0.056215458 -0.056818902 -0.015671432
0001c0 5b e5 ad 3d 00 65 87 3b 9a d6 90 bd dc e6 08 bd
       0.08491012 0.004131913 -0.07072182 -0.03342329
0001d0 2c 5e de bc 18 0c 9e bc c0 cb 1c 3c b5 67 bd 3d
       -0.027144514 -0.019292876 0.009570062 0.09248296
0001e0 e0 70 af 3b 47 e7 7c bd 30 f3 a7 3b e2 65 44 3d
       0.005354032 -0.061744 0.0051254258 0.047948726
0001f0 96 2d 4b 3d b3 2c bb bd f4 96 92 bc 2d 32 98 bd
       0.04960402 -0.09139385 -0.017894246 -0.07431445
000200 3a c5 2e bd 82 93 13 3d 46 6f 91 bd 62 42 18 3d
       -0.04266856 0.036029346 -0.07101302 0.037172683
000210 6b d4 ad 3d 80 eb d6 3b 26 7f 88 bd e6 c0 12 bd
       0.08487781 0.0065588355 -0.06664877 -0.035828494
000220 48 e2 b2 3c 6b 1f 9c bd 56 7e 4b 3d 83 ee b9 bd
       0.021836415 -0.0762318 0.04968103 -0.090786956
000230 75 df c4 bd 00 ff c6 bd 88 2f a6 bc d9 b6 89 3d
       -0.096129335 -0.09716606 -0.020286337 0.067243285
000240 c2 d6 c1 bd 25 3a aa 3d 70 d9 23 bd 44 ee ef 3c
       -0.0946479 0.083118714 -0.040002286 0.029288419
000250 80 6e 95 3b 0d ac b8 bd b9 d8 a9 3d e2 8b 5c 3d
       0.0045602918 -0.09017191 0.0829329 0.05384434
000260 01 92 cb 3d 56 ef 4e 3d a0 2e 87 bd 39 ec aa 3d
       0.099399574 0.050521217 -0.0660069 0.08345837
000270 20 1c b0 3b 32 3d 42 3d f0 36 a4 bd a8 9f eb bc
       0.0053744465 0.04742164 -0.08018291 -0.028762653
000280 aa 16 c9 bd 40 89 1f bd 18 ba b0 3c 16 cd a0 bd
       -0.09818776 -0.03894925 0.021573111 -0.07851617
000290 da 90 02 3d 46 e0 5b 3d 90 3e 64 3c 3d 07 89 bd
       0.031876422 0.05368068 0.013930932 -0.06690834
0002a0 15 c9 9e bd a0 bc fc bc 1a cc 33 3d 95 03 ca 3d
       -0.07753197 -0.030851662 0.04389582 0.098639645
0002b0 2a 88 6b 3d c0 7f 38 bc ce 9c 0f 3d f3 eb c8 bd
       0.057502903 -0.011260927 0.03506165 -0.09810629
0002c0 82 eb ae bd 62 1f 3f 3d f0 00 68 bd 8a 0e 45 3d
       -0.08541013 0.04666079 -0.05664152 0.04810957
0002d0 2d 93 90 bd 1d e1 4a bd 06 b1 a8 bd f6 be 55 3d
       -0.070593216 -0.04953109 -0.082368895 0.052184068
0002e0 e8 f1 26 bc 43 9d 9d 3d 72 7d 7d 3d 2e a6 62 3d
       -0.010189511 0.07696011 0.061887212 0.055334263
0002f0 00 bd 52 3b 54 47 fd bc b8 1e b2 bc 90 be 59 3c
       0.003215611 -0.030917801 -0.021743163 0.013290063
000300 ea 0a 4b 3d 16 7b 8f bd 55 e2 ab 3d b0 24 32 bc
       0.049570955 -0.07005899 0.08392779 -0.010873005
000310 7b 9c ab bd 07 9e 5d bd ef 35 b5 3d 91 4b bb 3d
       -0.08379456 -0.054105785 0.08848178 0.091452725
000320 bb b3 bd bd f1 71 90 3d 5a 46 4d 3d 26 73 72 3d
       -0.092627965 0.070529826 0.05011592 0.059191845
000330 83 5e ad 3d 0a c1 5c bd 7e 57 01 3d 36 9f 27 3d
       0.08465292 -0.053895034 0.03157758 0.04092332
000340 74 11 f2 bc ee 12 09 3d e0 b1 eb bc 66 3d 7d 3d
       -0.029549338 0.03346532 -0.02877134 0.061826132
000350 74 4a e3 bc 76 b2 18 bd 9c 3b ce 3c 52 48 11 3d
       -0.027745463 -0.03727957 0.025174908 0.03546936
000360 73 1e 48 bd f0 d4 10 3c ba 60 6d 3d f0 03 23 bc
       -0.048857164 0.008839831 0.057953574 -0.009949669
000370 74 4f f9 3c 94 94 c5 bc 8e 90 0f 3d 1e 5b 94 bd
       0.030433394 -0.0241187 0.035049967 -0.07243942
000380 4a db 70 bd ba e8 4f bd a3 36 bc 3d 08 6f dc bc
       -0.05880288 -0.050759055 0.091901086 -0.026908413
000390 00 26 8f b9 0a 73 46 bd 27 73 cc 3d a5 05 c8 3d
       -0.00027303398 -0.048449554 0.09982901 0.097667016
0003a0 1a 75 9a bd 73 06 a6 bd aa 3c 9b bd 00 da fc b9
       -0.075418666 -0.08106699 -0.0757993 -0.00048227608
0003b0 38 d1 d0 bc 0c 0d 86 bd 80 e9 12 bd ac c5 9a 3c
       -0.025490388 -0.06545457 -0.035867214 0.018893085
0003c0 20 03 56 bd 38 85 b5 3c 08 db bb bc 27 7a 46 bd
       -0.052249074 0.02215825 -0.02293159 -0.048456337
0003d0 a8 17 61 3c 03 66 a8 3d 06 76 8a bd 00 28 98 3b
       0.01373855 0.08222582 -0.067607924 0.0046434402
0003e0 1a 0c 17 bd b7 f8 c8 3d 85 4e c2 bd 75 55 c4 bd
       -0.036876775 0.098130636 -0.09487633 -0.09586612
0003f0 8d ce c9 3d 2d 93 81 bd 4c 0f 9d 3c 68 67 0d bc
       0.098538496 -0.063269 0.019172333 -0.008630611

nn_model.2.bias f4 [100]
000000 cf 8a 0f 3e 20 88 83 3c 78 9f b0 bd 89 ed 90 3d
       0.14017795 0.01605612 -0.08624166 0.07076556
000010 87 e0 6d bd 02 c9 27 3e c9 47 75 3c 04 ca d6 3c
       -0.058075454 0.16385272 0.014970728 0.026219375
000020 a7 9f a9 3d af 0c f3 3d 49 3c 6f bd 2b 37 d2 3d
       0.082824044 0.118676536 -0.0584071 0.10264429
000030 03 a8 c6 3d f4 32 dc 3c 8d 39 29 3e f5 97 a3 3d
       0.097000144 0.026879765 0.1652586 0.07987968
000040 0d fe d7 bc 00 00 13 39 83 b7 94 bc fb 24 b5 3d
       -0.026366258 0.00014019012 -0.018153911 0.08844944
000050 ea 95 2b 3d 19 a4 13 3e 00 41 b7 bd 73 25 26 bd
       0.041891016 0.14418067 -0.08947945 -0.040563058
000060 18 b6 9a bd fc 67 21 3c 4c f4 a8 bc f7 39 b2 3d
       -0.07554263 0.009851452 -0.020624302 0.08702462
000070 26 4a 55 3d 7f d0 a9 bc f0 df 40 3c 6b f5 96 bd
       0.052072667 -0.020729301 0.011772141 -0.073710285
000080 d0 ef 3c bc 58 7d 84 3c 49 21 92 3d da 5a f8 3d
       -0.011531785 0.01617305 0.07135255 0.121267036
000090 74 78 9e 3d 32 c3 f1 3d b1 33 a0 3d 0f 49 f2 3c
       0.07737818 0.11804809 0.07822359 0.029575853
0000a0 84 9b 21 3e 67 b2 79 bd e1 e5 c2 3d 12 57 bc 3d
       0.15781981 -0.060961153 0.09516502 0.09196295
0000b0 95 98 97 3d c2 6d c3 bd ab 53 fc 3d 3d 25 b0 bd
       0.074021496 -0.09542419 0.12320646 -0.08600853
0000c0 1a 0c 30 bc 3a 1b 04 bd 96 95 c8 bd f8 d8 df bb
       -0.010745073 -0.032252528 -0.09794156 -0.0068312846
0000d0 6b 95 da bc da 2e c0 bd 08 58 55 3d d0 21 2a 3e
       -0.026682576 -0.09383936 0.052085906 0.16614461
0000e0 87 5f 57 3d 40 63 fa bc b8 e0 e9 bc 80 eb b8 bd
       0.052581336 -0.030564904 -0.028549537 -0.09029293
0000f0 60 c0 b1 bb 85 42 a8 3d 93 f9 c7 bd 92 c4 3e 3e
       -0.005424544 0.082158126 -0.097643994 0.18629673
000100 b1 44 d3 3d 5a 70 f3 3d 37 13 e8 bb 61 3e c5 3d
       0.10315836 0.11886664 -0.0070823687 0.096310385
000110 d6 19 0d 3e 20 6e 02 bd 11 51 9d 3d 20 7b f0 bb
       0.13779387 -0.031843305 0.07681478 -0.0073388964
000120 07 43 b4 bd 4c 24 d2 bc c0 2c 3c 3b 55 0f 20 3c
       -0.08801847 -0.025652073 0.0028713197 0.00976928
000130 66 10 d5 bc d0 79 28 bc 62 df 0c 3d ce af 39 3d
       -0.026008796 -0.010282949 0.034392722 0.045333676
000140 0b b9 47 bc 60 3a d2 bb df 90 90 3d cd bd c4 3d
       -0.012190114 -0.0064156502 0.07058882 0.09606514
000150 3a 8e e0 3d 21 1a 10 3e 0b 7d cd 3d 5e ac 78 3d
       0.109646276 0.14072467 0.10033616 0.060711257
000160 aa 5f 62 bd 37 28 2a bd 2a 71 04 3d c0 78 ab bc
       -0.055267014 -0.041542258 0.032334484 -0.020931602
000170 4e 32 19 3e 4a 77 8a 3c 6f 95 e4 3d 77 27 83 3d
       0.14960596 0.016902585 0.11161315 0.06404012
000180 54 9d 23 3e 77 94 a0 3d a3 c6 6c bd c2 b9 6c 3d
       0.15977985 0.078408174 -0.057806622 0.05779434

nn_model.4.weight f4 [100, 100]
000000 60 c6 ca bd 20 d0 5b bd 2c 07 82 bc a1 80 ac 3d
       -0.09901118 -0.05366528 -0.01587256 0.084229715
000010 b4 08 a5 bc 9e 32 a4 bd 2a c2 b6 bd c0 50 f5 3a
       -0.020145752 -0.08017467 -0.089237526 0.0018716082
000020 d0 9d f4 3b 48 47 c7 3c 58 6a e5 bc ba a0 08 3d
       0.007465102 0.024325982 -0.02800481 0.033356406
000030 68 bd 2b 3c e0 25 d7 bc 46 c7 51 3d ce c9 93 bd
       0.01048217 -0.026263177 0.051215433 -0.072162256
000040 73 11 54 bd 74 87 ca 3c f4 07 ea bc c0 75 1e bb
       -0.051774453 0.024722792 -0.028568245 -0.0024179071
000050 1c be 12 bd 82 8b 69 3d 65 e2 c0 3d 43 65 af 3d
       -0.035825834 0.05701781 0.09418181 0.08564236
000060 04 86 d4 3c bc ce 81 bd 86 32 0f bd e7 71 3a bd
       0.02594281 -0.063382596 -0.034960292 -0.045518782
000070 ac 0e 9e bc 27 27 4c bd 6e 1c 74 3d 18 49 c2 bd
       -0.019294105 -0.049842026 0.059597425 -0.09486598
000080 d0 06 8f 3b 91 fa 93 3d c0 6f a2 bd 38 86 8f bc
       0.004364826 0.07225526 -0.07931471 -0.017520055
000090 6e 8e 60 3d bc 19 0f bd fa f1 41 bd 9e 27 5a 3d
       0.05482333 -0.03493665 -0.047349907 0.05326044
0000a0 bb cb 8d bd 87 5c cc 3d fb b4 b7 3d 30 b1 92 3b
       -0.06923624 0.09978586 0.08970066 0.004476689
0000b0 74 2e 84 3c a0 a0 50 bd a0 df be 3c 7b ba 9a bd
       0.016135432 -0.050934434 0.023299992 -0.075550996
0000c0 f4 7a d5 bc e1 ba a3 3d dc 0b ef 3c 17 65 94 3d
       -0.026059605 0.07994629 0.02918046 0.07245844
0000d0 d9 25 87 3d 19 9f c3 3d 84 54 cf 3c aa 19 96 bd
       0.06599016 0.0955183 0.025308855 -0.07329114
0000e0 ea 5f b9 bd c6 0e 7e 3d 39 59 a6 3d 7d a4 c9 3d
       -0.09051497 0.062025808 0.081224866 0.09845827
0000f0 8a 26 8b bd 1b 1b bb 3d 8a f4 11 bd 84 ca d5 3c
       -0.0679446 0.09136029 -0.0356336 0.026097544
000100 d5 e6 8d 3d 26 0a 9e bd b2 91 c4 bd ad 30 88 3d
       0.06928793 -0.077167794 -0.09598102 0.06649909
000110 e7 6b be bd c6 7c 46 3d e2 fc 6c 3d ed d2 95 3d
       -0.092979245 0.048458837 0.057858355 0.073156215
000120 60 1d 1e 3b 58 46 d1 bc 68 a9 55 3c 68 de 62 bc
       0.0024126396 -0.025546238 0.013040878 -0.013846971
000130 95 02 c1 bd a8 43 c1 3c c3 65 70 bd b1 96 97 3d
       -0.094243206 0.023591831 -0.058690798 0.07401789
000140 7d 4e 40 bd 78 be 9f bc 4b da 9e bd 37 a5 bc 3d
       -0.046949852 -0.019500002 -0.0775648 0.092112
000150 46 a2 6d 3d a9 51 b3 3d 86 08 6f 3d ed 7b 7c bd
       0.058016084 0.0875581 0.058357738 -0.061641622
000160 21 a0 c1 3d c0 50 5c bc af 6e bc 3d 90 73 65 3c
       0.0945437 -0.013446987 0.09200799 0.014004603
000170 bb af 81 3d 4a 92 22 bd ca e7 20 3d 00 b9 1d ba
       0.06332346 -0.039690293 0.03928355 -0.0006016642
000180 e3 73 a3 bd 23 a3 9e 3d 73 fa 5e bd 28 b5 87 bd
       -0.07981088 0.077459596 -0.054438066 -0.0662635
000190 8e ee 93 3d c7 e4 bb bd 9e 74 0d 3d 93 8c a6 3d
       0.07223235 -0.09174495 0.034535043 0.08132281
0001a0 b8 7a 82 bc 1d b3 d2 bd 09 59 b7 bd 60 24 a2 bb
       -0.015927657 -0.102880694 -0.08952529 -0.004948184
0001b0 8c 01 82 bc c5 fb 79 3d 30 75 93 3d 2a f3 68 bd
       -0.015869878 0.06103112 0.07200086 -0.056872524
0001c0 68 7a d8 bc f2 9b b0 bd 77 df 64 3c 5c 43 85 3d
       -0.026425555 -0.08623494 0.013969294 0.065069884
0001d0 f7 cc 2b bd 40 74 59 3b c1 44 79 bc f0 9e b1 bd
       -0.041943517 0.0033180863 -0.015214146 -0.08672893
0001e0 6f 9f c7 3d 76 ae 5b 3c b9 1e c0 3d 4d 0f b2 bd
       0.097472064 0.013408294 0.0938086 -0.08694325
0001f0 b4 71 ef bc ec 04 d8 bc a1 77 1a 3d 67 b9 07 bd
       -0.029229023 -0.026369534 0.037711743 -0.033135798
000200 c0 a3 6b bd 7f c2 96 3d 37 c8 a0 3d c3 a9 cb 3d
       -0.05752921 0.07361316 0.07850688 0.09944489
000210 b2 43 76 3d 45 b9 86 3d 7d 4f 87 bd 3b 27 54 3c
       0.060123153 0.06578306 -0.06606958 0.012948806
000220 be 9c 21 bd 5a a2 8d bc e8 6b 05 3c a4 b7 cb 3c
       -0.03945612 -0.01728933 0.008143403 0.02486784
000230 37 d7 89 bd 18 23 85 bc a5 37 5f bd e8 cd 0b bd
       -0.06730502 -0.016252086 -0.054496426 -0.034131914
000240 a6 df 83 bd e3 f6 55 bd 1b f5 93 bd 3a ca 8f bd
       -0.06439142 -0.052237403 -0.072244845 -0.070209935
000250 39 0f 62 bc b7 1d ae bd 24 70 d1 bd 5e f5 80 3d
       -0.013797575 -0.085017614 -0.10226467 0.062968
000260 4a 5b 95 bd 11 61 8f 3d 3d d6 72 b9 15 9e b6 bc
       -0.07292803 0.07000936 -0.00023158728 -0.022292176
000270 bd ad 8d 3d 58 7c a8 bd 9e 39 44 3d b5 df 94 3d
       0.069179036 -0.08226842 0.04790651 0.07269231
000280 c7 5c a3 3d d5 3b bf bd 50 44 9b 3b 55 cf a8 bc
       0.0797668 -0.09337584 0.004738368 -0.020606676
000290 25 a8 8b bd 50 59 76 3d 60 63 b2 bc 3a e5 73 3d
       -0.068191804 0.06014377 -0.021775901 0.05954478
0002a0 6e a9 7e bd b5 37 58 bd 1e 01 1a 3d e8 58 51 3c
       -0.0621733 -0.0527875 0.03759872 0.012777545
0002b0 a2 bf 6a 3d c6 bb 2e 3d c5 ef a3 3d aa ca 9e bd
       0.05731166 0.042659543 0.08004717 -0.07753499
0002c0 83 18 76 3c 35 1d 98 3d 87 9a 39 bd b3 f0 7f bd
       0.0150204925 0.07427446 -0.045313384 -0.062485408
0002d0 b0 8c b8 3d 40 82 ab bd 3a bb a5 bd bf f7 bb bd
       0.09011209 -0.083744526 -0.08092351 -0.09178113
0002e0 41 dd 88 3c 9c 84 83 3c d1 b3 c4 bd 32 19 5a 3d
       0.016707065 0.016054444 -0.0960461 0.053246684
0002f0 b4 db ea 3c 12 c0 0a 3d 2d 78 c8 bd 83 44 bb bd
       0.028669216 0.03387458 -0.09788547 -0.09143927
000300 6c fe b7 bd 5c d1 35 bd d5 6f c4 bd 96 7a 4f 3d
       -0.08984074 -0.044389114 -0.09591643 0.050654016
000310 bd d0 af bc fd 87 21 bd f9 f4 b1 3d d0 40 58 3c
       -0.021461839 -0.03943633 0.08689303 0.013199046
000320 00 17 22 bd 40 02 66 bd 60 2a f1 bc cb d8 ac bd
       -0.039572716 -0.05615449 -0.029439151 -0.084397875
000330 93 06 7b bd 75 27 e4 3d a7 a1 27 be 2e a1 60 3d
       -0.061285567 0.11140338 -0.16370259 0.054841213
000340 b5 bf 8c 3d 58 ff 31 bd e2 e8 44 be 13 f4 0a 3e
       0.06872503 -0.043456405 -0.19229463 0.1356967
000350 42 cb 5b 3d c4 8a e7 3c 37 d3 a7 bd 37 bf 39 be
       0.05366064 0.02826441 -0.08194583 -0.18139349
000360 96 51 fe 3c 74 ab b9 bc ce c6 ba 3d 88 00 b9 bc
       0.031044763 -0.022664763 0.0911995 -0.022583261
000370 73 45 84 3d b4 bb 2d bd f1 b6 92 3d b1 16 99 3d
       0.06458559 -0.042415336 0.071637996 0.07475031
000380 24 72 fd 3c 50 64 05 bc ba 72 fe 3d ad a2 86 bd
       0.030938216 -0.008141592 0.12424226 -0.06573997
000390 99 06 90 3d 6f c0 ab bd 68 78 55 3c 98 8e 24 bc
       0.070325084 -0.08386313 0.013029195 -0.010043763
0003a0 78 c1 ca 3c 4b 48 b4 3d 20 49 c1 3c 4c c8 c4 3c
       0.024750456 0.08802851 0.023594439 0.02402129
0003b0 90 11 98 be 74 78 2f be 00 71 2f bb 44 56 8d bd
       -0.297009 -0.17135793 -0.0026770234 -0.069012195
0003c0 c5 13 7b be c0 90 51 3c b8 c3 18 bc 0a 3d a2 bd
       -0.2451926 0.012790859 -0.009324007 -0.079217985
0003d0 80 e1 ab bb 00 e3 ba b9 38 5b 8c be c4 73 11 bd
       -0.0052453876 -0.00035645813 -0.27413344 -0.035510793
0003e0 fe 96 19 3d f3 e1 2c bd b8 dc 00 3d 79 43 c7 3d
       0.037497513 -0.04220767 0.031460494 0.09729666
0003f0 c3 39 a7 3d 2f b8 a3 3d 93 a2 af 3c c2 99 93 3d
       0.08165314 0.079941146 0.021439826 0.07207061

nn_model.4.bias f4 [100]
000000 58 d3 d9 bc f8 ef 35 bd 1b 56 5d bd 4d 2f 9b 3d
       -0.026590034 -0.044418305 -0.054037195 0.07577381
000010 95 1c 88 bd 09 d7 b1 3d 38 1f a3 3c 21 c4 4f bd
       -0.066460766 0.08683593 0.019912347 -0.050724152
000020 b9 c7 78 bd 62 cd 7c 3d ba da 17 3d 57 a8 49 3d
       -0.060737345 0.061719306 0.03707383 0.049232807
000030 c3 db a1 3d a1 9d d2 bc ca 14 41 3d 6b d7 d1 3c
       0.07903244 -0.025709929 0.047138967 0.025615415
000040 2d 6e 15 bd 82 c9 f9 bc b8 78 a9 3d 14 6d 84 3d
       -0.036482025 -0.030491594 0.082749784 0.064661175
000050 29 84 80 3d 28 03 d8 bc 74 e2 4f 3d d6 97 e8 3d
       0.062752075 -0.026368693 0.050753072 0.113570854
000060 b1 1b 91 38 14 4f 04 bd 83 a9 a4 bc b1 9d 8c bc
       6.919297e-05 -0.032301977 -0.02010036 -0.017165037
000070 97 3e 60 3d a0 ad a6 3b dc f1 8c 3d a0 68 a7 3d
       0.05474719 0.0050866157 0.068820685 0.081742525
000080 1a 6f a8 bd 2a 37 c3 bd 2a a9 c2 bd ef 69 d5 3d
       -0.08224316 -0.09532006 -0.09504922 0.10420596
000090 00 78 e5 bc 39 df e8 3d c7 30 fd 3d c5 5f 92 bd
       -0.028011322 0.11370701 0.12362819 -0.07147173
0000a0 ae f0 1f 3d cd 1f 97 bd 7a 68 1c 3d 50 27 20 3c
       0.03904789 -0.073791124 0.038185574 0.009774998
0000b0 17 55 99 3d 9e 11 e2 3b 77 64 dd bb a2 ca ad bd
       0.07486933 0.006899073 -0.006756361 -0.08485915
0000c0 52 91 86 3d 5a 31 37 3d 18 79 a6 3a 9e 42 27 3e
       0.065706864 0.0447248 0.0012700884 0.16334006
0000d0 5c 43 f9 3c f0 c0 d6 bc 0f 03 4a 3d 7f 7d 0b 3d
       0.030427627 -0.026215047 0.049319323 0.03405523
0000e0 aa 19 26 bc f5 88 c7 3c 2d c1 75 3c a8 71 d2 3d
       -0.010137955 0.024357298 0.01499967 0.102755845
0000f0 83 55 de 3d 40 22 38 bb b3 76 6f bd 8b 6d b6 bd
       0.10856154 -0.0028096586 -0.05846281 -0.089076124
000100 64 cd bb bd b8 02 05 3d 20 57 c6 bd 09 42 92 3d
       -0.091700345 0.032473296 -0.096845865 0.071415015
000110 94 e3 bc bd 97 e0 a3 bc 61 c9 95 3d 3b 05 91 3d
       -0.092230946 -0.020004554 0.073138006 0.07081076
000120 fc 81 b2 3d 14 fc e9 3b a2 4f c0 3d 7c b8 9f 3d
       0.08716199 0.0071406458 0.09390189 0.077988595
000130 ca b8 bf bd 73 fa b7 3b 5f 50 26 bd 0d c2 a5 3d
       -0.093614176 0.0056145727 -0.04060399 0.08093653
000140 93 47 39 3d 23 d0 cd bc 73 95 30 bd 12 0b 9f 3c
       0.045234274 -0.025123661 -0.043111276 0.019414458
000150 7d 7c b2 3c 1f 03 c0 bd 54 72 a7 bc 37 57 cb 3d
       0.021787876 -0.09375595 -0.020440258 0.09928744
000160 29 7f 6c 3c 09 17 34 3b f9 c6 cf bd 22 6a 8b bd
       0.014434614 0.002747955 -0.10145373 -0.068073526
000170 6e ec 42 3d 16 65 0d 3d b3 78 94 bd 50 9d 42 3b
       0.04758876 0.03452023 -0.07249584 0.0029695816
000180 10 56 44 bb cf a0 f2 3d 52 90 c9 bd cc 87 27 3d
       -0.0029958524 0.11847078 -0.0984198 0.04090099

allocation_head.weight f4 [12, 100]
000000 b0 74 52 3c bf ca 6e 3d 96 1c 91 3e 66 ab 1c be
       0.012845203 0.058298822 0.28342122 -0.15299758
000010 68 89 b8 bd 83 f0 67 3d 54 7e 08 be 14 24 8c bd
       -0.09010583 0.056625854 -0.1332944 -0.06842819
000020 e6 ad d8 bd 6a d6 b6 bd ca 3c 39 3d e3 75 bb 3d
       -0.105800435 -0.08927615 0.04522399 0.091533445
000030 02 97 86 bd 7a b4 96 bd 01 83 e8 bc c3 03 4a 3c
       -0.06571771 -0.07358642 -0.02838278 0.012329998
000040 7e 8d df 3b f1 d5 a4 3d 3e 1f ef bd 88 a5 22 3d
       0.006822287 0.080486186 -0.11675881 0.039708644
000050 d0 a6 56 bc 8a 46 0a 3d 0c 75 00 bc 0a 06 d4 bd
       -0.013101295 0.033758678 -0.007840406 -0.10352714
000060 74 de b5 bd 50 e6 aa 3b e1 7c a9 3c c0 e7 26 3e
       -0.0888032 0.0052154437 0.02068943 0.16299343
000070 41 d9 3b bd 40 bd 99 bc 24 40 70 3c 53 31 c7 bd
       -0.045861486 -0.018767 0.01466373 -0.09726205
000080 8c 0e c9 3c 7b d1 50 bd 24 de 5c bd 3d 50 38 3e
       0.02454307 -0.050981026 -0.053922787 0.17999358
000090 67 61 76 bd 57 5a 24 be 94 dd fc 3d 6f 83 d4 3d
       -0.060151484 -0.16050087 0.1234695 0.103766315
0000a0 26 f8 e3 bc 23 74 f8 bb fd e6 6b bd 68 c5 5c 3c
       -0.027828287 -0.007582204 -0.057593334 0.0134748
0000b0 4b 30 9a 3d e4 34 2d bd f3 5c a8 3d 47 08 40 bd
       0.075287424 -0.04228677 0.08220854 -0.046882894
0000c0 ea a1 27 bd 48 66 96 3c 17 ab 3b 3d b4 00 11 3e
       -0.040925898 0.018359318 0.04581746 0.14160424
0000d0 33 8b 04 3e 74 f8 8e 3d 04 5f 37 3c 97 03 b5 3d
       0.12943725 0.069809824 0.011192087 0.08838575
0000e0 5b e4 29 bd d2 22 09 3e 5e b3 da 3d 21 57 d5 3d
       -0.041477542 0.13392189 0.10678743 0.10417009
0000f0 8a d8 f6 bd c7 31 c8 3d 6e ca 46 bd cb e4 8f 3d
       -0.1205302 0.09775119 -0.048532896 0.07026061
000100 8a 14 41 3b 93 82 df 3d 34 3e b7 bc 0e 3a 0c 3d
       0.0029461705 0.10913577 -0.022368528 0.034235053
000110 8a af 17 bd ab c6 b2 3d 83 42 bb bd e3 a6 9d 3d
       -0.03703264 0.08729299 -0.091435455 0.07697847
000120 35 70 26 3e 32 9c 2f bd 41 dc 09 3e 61 2d 8a 3d
       0.16253741 -0.04287357 0.13462926 0.067469366
000130 5d 46 b6 3d 07 be f9 bd 44 e2 18 be 0d 77 d7 bd
       0.089001395 -0.12194448 -0.14930063 -0.10520754
000140 d3 16 9a 3c ba 0a 19 3d a8 2b 8d 3c cb fc 70 3d
       0.018809712 0.037363745 0.017232731 0.058834832
000150 f6 3c 45 3b 88 00 17 3c d7 a2 55 bc e8 63 52 bd
       0.003009615 0.009216435 -0.013039312 -0.05136481
000160 98 a1 13 3d 06 dd 92 bd 3c 81 80 bd ac 60 86 3d
       0.03604278 -0.07171063 -0.062746495 0.065614074
000170 d0 be 7d bd 45 f2 aa 3d 36 ae 67 3d 29 c2 66 3d
       -0.06194955 0.083469905 0.056562625 0.05633751
000180 62 fa b8 3d 81 b3 21 3e ed c9 5a bd 2e b1 5a bc
       0.09032132 0.15791132 -0.053415228 -0.013347907
000190 58 4c 4d 3c 86 92 9a bd fa 89 77 bd 00 9d 3b bb
       0.012530409 -0.075474784 -0.06043432 -0.0028627515
0001a0 06 73 7a 3d 86 e6 88 bd 40 44 14 bd fa 3b 7c bd
       0.06114485 -0.06684594 -0.0361979 -0.061580636
0001b0 83 76 a1 3d 1e 55 ab bd a0 68 0c bb d9 1a 9f 3d
       0.078839324 -0.08365844 -0.0021424666 0.07768793
0001c0 39 83 b2 3d b8 12 84 bc f2 53 90 bd e0 b0 b6 bc
       0.08716435 -0.016122207 -0.07047261 -0.022301137
0001d0 cd 36 aa 3d 18 be 66 bc 4f e6 9c 3d 57 03 a3 3d
       0.08311234 -0.014083408 0.076611154 0.079596214
0001e0 1e a5 35 3d aa 5f 64 bd 7e 55 81 bd 3d f7 36 bd
       0.04434692 -0.055755295 -0.063151345 -0.04466938
0001f0 d7 4e b2 bd aa 71 b8 bd ea 5d 18 3d dd 98 91 bd
       -0.08706444 -0.09006055 0.03719894 -0.071092345
000200 18 fa 70 bc 48 1c c8 3c 8a f2 61 3d 09 f6 a7 3d
       -0.0147080645 0.024427548 0.055162944 0.08201224
000210 fa 5d b3 bd 3a 11 32 bd 26 6f 81 bd 18 7b 9f 3c
       -0.08758159 -0.04347346 -0.06320028 0.019467875
000220 b5 68 bc bd 3e 60 30 3d 66 9b 12 3d 33 ed 57 bd
       -0.09199659 0.043060534 0.03579273 -0.052716445
000230 93 38 a6 3d 46 96 01 bd c3 ca c1 3d 2f f4 c3 3d
       0.081162594 -0.031637453 0.09462502 0.09568059
000240 85 9b 8f bd d9 fd c0 3d 9f ec 94 3d 7e aa 8d bd
       -0.07012085 0.094234176 0.072716944 -0.069172844
000250 15 8c a6 bd 77 2f 61 bd 5d 9c b7 3d 11 73 b7 3d
       -0.08132187 -0.054976907 0.08965371 0.08957494
000260 ae 21 52 3d 77 ad b3 3d ed 5f 5c bd e4 ca d7 3c
       0.05130165 0.0877332 -0.05380242 0.026341863
000270 73 60 54 bd 4a 4c 26 bd 24 c5 f7 3c fa f4 82 bd
       -0.051849794 -0.0406001 0.030245371 -0.06394382
000280 46 55 47 3d 00 82 d1 39 7a 75 a5 bd 30 98 08 bd
       0.048665307 0.00039960444 -0.080790475 -0.033348262
000290 aa cf 02 bd a8 ca 79 3c a2 a7 3c 3d 07 c3 72 bd
       -0.031936325 0.015246071 0.046058305 -0.059268024
0002a0 93 b3 71 bd 2d a8 29 bd 06 f3 59 3d 4e 99 73 3d
       -0.059009146 -0.04142015 0.05321028 0.059472375
0002b0 80 3d c8 bd f2 03 37 3d 92 d6 47 3d d2 0e 36 3d
       -0.09777355 0.044681497 0.048788615 0.044447728
0002c0 bb de ba 3d 18 a9 b0 bc 7d d9 8a 3d 34 11 8e bc
       0.09124514 -0.021565005 0.06779764 -0.017342187
0002d0 23 8d a0 3d fa cd 7d 3d 80 21 4c 3a 62 db 47 3d
       0.0783942 0.061964013 0.00077869743 0.048793204
0002e0 4a c7 85 bd 12 25 62 3d 1d 03 69 bd e3 70 5e bd
       -0.06532152 0.055211134 -0.056887735 -0.054306876
0002f0 fa 68 17 bd f5 cd 97 3d 32 c2 8e bd 75 fe 95 3d
       -0.036965348 0.0741233 -0.069706336 0.073239245
000300 9e 69 57 3d a7 df b3 3d 48 76 f4 bc 00 0b a2 3b
       0.05259096 0.08782893 -0.029841557 0.004945159
000310 ed 42 bc bd 91 ea bb 3d a0 a8 c1 3b 0a b0 61 3d
       -0.091924526 0.09175599 0.0059099942 0.055099525
000320 48 ae c5 3c ab 65 51 bd 68 72 4c bf 05 91 4e 3d
       0.024130955 -0.05112235 -0.7986207 0.05043127
000330 b3 35 1e bd 68 a4 83 3d 5d b6 3f 3d c7 dd 1a 3d
       -0.03862543 0.064278424 0.046804775 0.03780916
000340 ee 1f 54 3d c0 de c9 bc 34 10 94 3c d1 6d b6 3d
       0.051788263 -0.024642348 0.018074133 0.089076646
000350 2e b2 93 bd 54 89 d6 3d 2e 24 a6 bd 44 32 d1 3d
       -0.072117195 0.10475412 -0.081123695 0.102146655
000360 77 dd 2b 3d 54 79 16 be 22 4b 0e 3e 81 c6 b5 3d
       0.041959252 -0.1469472 0.13895848 0.08875752
000370 5f 99 b0 3d 90 83 18 3c 82 82 17 be 2d 6f 8b 3d
       0.08623003 0.009308711 -0.14795879 0.068083145
000380 01 fc c8 3d 82 36 1f 3d 6a 51 0f 3e aa ab 88 bd
       0.09813691 0.038870342 0.13995901 -0.06673367
000390 3f 1d ae bc e8 e9 77 bc 49 53 3f be 1e 0c 18 3e
       -0.02125418 -0.015131451 -0.18684115 0.14848372
0003a0 2b a8 c7 3d da 66 a8 3c b3 51 81 3c 30 92 06 be
       0.09748872 0.020556856 0.015786028 -0.13141704
0003b0 c5 bd 8b bd b1 8d 02 3e 7a fe 8d 3d 49 03 62 bc
       -0.06823305 0.12749363 0.06933303 -0.013794729
0003c0 ae 07 cf 3d 2c 0b 07 bc 8e c6 51 3d 55 26 c7 bd
       0.10108887 -0.00824241 0.051214747 -0.09724108
0003d0 82 a3 26 be 92 95 3f bd 0b b1 5f 3c 5d 20 ca 3d
       -0.16273311 -0.0467735 0.01365305 0.09869454
0003e0 79 40 7e bd 9a e8 87 bd 09 8c 78 bd 8a 8c 40 bd
       -0.062073205 -0.06636162 -0.060680423 -0.04700903
0003f0 73 61 4f bc bb 25 07 be 1d 60 32 ba eb e5 ad bd
       -0.012657511 -0.13197987 -0.0006804483 -0.08491119

allocation_head.bias f4 [12]
000000 7b e0 87 3d 82 56 73 3d 85 c3 94 3c 5c d1 de 3c
       0.06634613 0.059408672 0.018159637 0.02719944
000010 7e 16 17 3d c2 de 6f 3d 37 55 9d 3d 1a aa d0 3a
       0.036886685 0.058562048 0.07682269 0.0015919835
000020 55 eb 93 bd 4e 23 9a 3b 4c 49 c4 3c df fd 87 3d
       -0.072226204 0.0047039157 0.023960732 0.06640219

fractional_payment_head.0.weight f4 [2, 100]
000000 40 b0 b1 3c 24 50 1e bd d7 79 6b 3e 2b 6f c4 3d
       0.021690488 -0.038650647 0.22995697 0.09591516
000010 e0 10 4b bd 24 8a f4 3d b9 fd 1f bd f1 07 96 3d
       -0.04957664 0.11940411 -0.03906033 0.073257335
000020 1c 33 59 3e 0c 11 04 bd 2b 5c bf 3d bd f3 cb 3c
       0.21210903 -0.03224282 0.093437515 0.024896497
000030 af a8 b0 3d 16 f8 c1 3d 9a 50 d2 3c fe f8 7b bd
       0.08625924 0.09471147 0.0256732 -0.061516754
000040 96 00 8f bd fa 28 8c bd aa b4 85 bc b9 c5 36 3d
       -0.06982534 -0.06843753 -0.016321499 0.044622157
000050 6f 9a b4 3d 94 11 01 bd 62 29 b7 bd ad 68 bc 3d
       0.08818518 -0.031510904 -0.0894344 0.09199653
000060 1d 3c 4b bd f7 58 b4 bd d4 60 b3 3e 63 3e b5 3d
       -0.049617875 -0.08806031 0.35034811 0.0884979
000070 5d 30 cc bc 2f 69 c2 3d 08 d0 f8 bc 6e 7f 28 3e
       -0.024925405 0.094927184 -0.030372635 0.1645486
000080 a0 87 5d 3b 41 19 7d bc 7d 2a 9e bd 29 41 a6 bc
       0.0033802763 -0.0154479155 -0.07722948 -0.020294743
000090 ec dc e8 3c fb a7 cc 3d f3 fc ad 3c bc fd bf 3b
       0.028425656 0.09992977 0.02123878 0.005859105
0000a0 f8 ed ab 3d f3 69 b5 3c d6 92 8f bd c0 25 43 bb
       0.08394998 0.022145247 -0.070104286 -0.002977714
0000b0 b6 54 8d bd 10 da 4e bd 55 f6 77 bd 40 96 ab bc
       -0.06900923 -0.05050093 -0.060537655 -0.020945668
0000c0 04 a5 a9 3d 54 79 87 3c 81 11 ed 3d 56 35 76 3d
       0.08283427 0.016537346 0.11575604 0.06010946
0000d0 ce b0 4b 3b 96 50 26 bd 66 d1 c8 3d 6f 2c a2 bb
       0.0031080726 -0.040604196 0.098055646 -0.0049491446
0000e0 09 17 e7 3d 57 fa 00 3e 71 61 d4 bd 08 65 b5 bd
       0.112836905 0.12595497 -0.10370148 -0.08857161
0000f0 b7 d6 ff 3d 9b 41 ae bd e0 c5 ca 3d ef 7f bc bd
       0.124921255 -0.08508607 0.09901023 -0.09204089
000100 cf 9b 82 bb da ef 7f 3d db 06 a0 bd e5 2f 93 3d
       -0.003985859 0.0624846 -0.078138076 0.071868695
000110 86 ef ee 3d e5 52 e7 bd a1 2e 98 bd 18 df 1a 3c
       0.11666779 -0.11295108 -0.07430769 0.009452604
000120 d4 a8 b3 bd ef c5 40 bd 1d de 8a bc d2 7b 6c 3d
       -0.08772436 -0.047063764 -0.016951615 0.05773527
000130 87 d3 4e bd 49 d9 16 bd 7b 9c 2a 3d fe 54 a3 bd
       -0.050494697 -0.036828313 0.041653138 -0.07975195
000140 68 62 8e 3d a9 10 b8 bb 70 77 4a 3c 40 3f 71 3d
       0.06952363 -0.0056172204 0.012357578 0.05889821
000150 59 1e cb bb b5 c2 00 3c c0 46 94 3d 8b d1 da 3d
       -0.006198686 0.007858922 0.07240057 0.106844984
000160 97 84 62 3c 4a 52 5a 3d 76 5e c0 bd a1 37 22 3d
       0.013825557 0.053301133 -0.09393017 0.039603833
000170 42 fd 6f 3d 33 b4 59 bd 41 19 a7 3d ac aa ef 3d
       0.058591135 -0.053150367 0.08159114 0.11702475
000180 40 68 b7 bd ba 54 7e 3d 9b e1 77 3d 8b 68 8d bd
       -0.08955431 0.06209252 0.06051789 -0.069047056
000190 f0 39 49 bc 8c ed 87 bd af 1d d8 3d d9 a8 dc bd
       -0.01228188 -0.06637105 0.10552537 -0.10774393
0001a0 c0 ff 44 bd ab 58 a7 bb 3b 32 24 3d 26 84 61 3d
       -0.048095465 -0.0051070056 0.040086966 0.055057667
0001b0 42 f5 b8 bd 45 ca 87 bd d0 d3 f8 3b 37 e1 17 bd
       -0.09031154 -0.06630377 0.0075936094 -0.037080016
0001c0 b0 2c 15 bd e0 67 f2 bc 76 07 3c bd b7 be 32 3d
       -0.03641957 -0.029590547 -0.045905553 0.04363891
0001d0 c5 94 c1 3c 64 1a 78 3e dc 8d a0 bc 18 60 c4 3d
       0.02363051 0.24228817 -0.019598894 0.09588641
0001e0 a7 73 8a 3d b1 bc ca 3d 10 ef 5f 3e da f1 d6 3c
       0.0676034 0.09899271 0.21868539 0.02623837
0001f0 1c d9 9d 3d ee 19 80 bd 04 41 2e be af 4c 02 3e
       0.07707426 -0.06254946 -0.17016989 0.12724565
000200 37 b8 4f bd 30 17 dd 3b 30 89 e5 3d 2c d4 a4 bd
       -0.05071279 0.006747149 0.11207807 -0.08048281
000210 68 9a 88 3c 1b f1 c2 bc 68 88 a1 3c 35 62 27 3e
       0.01667519 -0.023796609 0.019718364 0.16346057
000220 90 3d 0e bc d5 5e c6 bd 1f bb ca 3d d0 ff d4 bb
       -0.00868167 -0.096860565 0.09898972 -0.006500222
000230 0d bb 59 bd ae 02 b4 3d e2 a8 4b 3d ba ba 76 3d
       -0.0531569 0.087895736 0.049721606 0.06023667
000240 96 ef b4 3d ad 68 8f bd d7 21 5c bd 80 dc 90 3c
       0.0883476 -0.07002387 -0.05374321 0.017683268
000250 8b 3c 23 3e 2b 6f a9 bd f7 31 80 bc 27 e4 e2 3c
       0.15941064 -0.08273157 -0.015648825 0.027696682
000260 1c 2c e8 3c a7 92 af bd a0 0a 9f 3d 68 c2 98 3d
       0.028341345 -0.085728936 0.077656984 0.07458955
000270 6d 14 0e bd b0 33 b9 3a 21 58 e8 3d fe 5f 5a 3d
       -0.03468745 0.0014129784 0.11344934 0.0533142
000280 4c 0f 47 3d 27 06 c9 3d e7 12 30 bd fd fa 23 bd
       0.048598573 0.098156266 -0.042986777 -0.040034283
000290 09 35 8c bd b4 33 79 bc 80 48 ae bb 6c da 0d bd
       -0.06846053 -0.015210081 -0.0053187013 -0.03463213
0002a0 21 3b bf 3d 4a 34 9d bd 9e 2d 92 3c aa ef 64 3d
       0.0933745 -0.07675989 0.017844018 0.055892624
0002b0 aa 0b 30 3d 42 14 7d bd 2f bd 9f 3d 97 f1 9a bd
       0.042979874 -0.061786897 0.07799756 -0.07565611
0002c0 cd 23 4f bd 7f f5 02 3d c2 60 6e bd 68 c5 29 bc
       -0.05057125 0.031972405 -0.058197744 -0.010362007
0002d0 97 c7 80 3d 0d 2d dd 3d d6 9e 40 3d 7e 7b 0f bd
       0.06288069 0.107996084 0.047026478 -0.03502988
0002e0 91 49 93 3d db b7 96 3d ee a1 20 bd 18 70 af 3d
       0.07191766 0.073592864 -0.03921693 0.08566302
0002f0 c8 49 2e 3d d7 07 c0 bd 7f 0f eb 3b 6b 7a d3 bd
       0.042550832 -0.09376495 0.007173478 -0.10326084
000300 ce 9b 13 3d 71 51 b0 3d c2 d6 99 bd 5f 94 a9 3d
       0.03603726 0.08609284 -0.07511665 0.08280253
000310 88 5c 0f 3e b9 87 3e bd e8 7a 0b bd 70 82 fc 3d
       0.14000142 -0.046516154 -0.03405276 0.123295665

fractional_payment_head.0.bias f4 [2]
000000 02 b4 b7 3d 75 ee c8 3d
       0.08969881 0.09811107
