learnable_preferences/preference/result/1x2-pv_1_0/entropy.pth (torch_old, 43361 bytes, 5 tensors)

module.MLP.0.weight f4 [100, 2]
00000000: f66f 5cbf a561 543f cca0 219a 22a1 9892
00000010: 4300 0080 5400 0000 9b6c f0be b19a e63e
00000020: 3d00 0080 3c00 0000 1f4f fd3b b3f5 f33b
00000030: 6d90 48a2 0efd 1b8a 6bfd cc3c f661 c63c
00000040: be96 8e32 3848 7f32 f8e7 1d8c 4800 0080
00000050: dc7b db33 8333 cc33 e400 6dbf 6325 6f3f
00000060: 54d9 48bf c993 3c3f e3ca 8b3f a03d 8dbf
00000070: 036a 8185 5300 0080 af2a 87bf 1c9a 823f
00000080: 5a52 2e88 5600 0080 6f58 988e a4d1 4ea1
00000090: 68ee 6b3d 5a1b 663d 5100 0000 4800 0000
000000a0: 1500 0080 4400 0080 28cb 033e 5732 ca3d
000000b0: 3137 3691 5900 0080 f1a7 5238 43f4 4638
000000c0: 4500 0080 1c01 0080 c67b 133d 47f9 0e3d
000000d0: 4f00 0000 2c00 0000 7d3e 5c3f 76fb 5cbf
000000e0: 5100 0000 e4b9 4496 c841 f98d 4e00 0080
000000f0: 134f 0997 a164 9b99 facc be3c d88f b83c
00000100: 7068 273a e347 2c3a da66 7e3d 0b8f 763d
00000110: 5bb7 803d 351b 7a3d f028 de95 5500 0080
00000120: 282b d63b 6e6e cd3b 383a f7ac 3067 d3ac
00000130: 3600 0000 6cc0 609d 2381 2f3f 8369 4bbf
00000140: e60e 2b3d 9c8c 283d dd5a dd3d e25c 9a3d
00000150: 4d00 0000 4d00 0080 3300 0080 4800 0080
00000160: 38bc f83c 482a ef3c 4600 0000 5000 0000
00000170: e4b5 9c3d 64f2 953d de98 fca3 70b5 4088
00000180: c2bf 1130 1e38 e52e c2a7 ae96 7d66 0080
00000190: f286 c5af c191 09b0 5100 0080 4d00 0080
000001a0: 290d 073d 68f1 023d ba88 3f94 0315 f395
000001b0: 2900 0080 4a00 0000 c1c3 52bf 5370 4f3f
000001c0: 4b98 2482 880b ae1f 3df8 483d 7fcf 303d
000001d0: 5100 0080 2e00 0000 3200 0000 4b00 0000
000001e0: 4d00 0000 3100 0000 1e88 4a3b 1792 423b
000001f0: 2dbd 83a2 1b65 1e80 f52e 203d 1031 1b3d
00000200: 4900 0080 1e47 e299 4a00 0080 4100 0000
00000210: 6a46 a488 0400 0080 4d14 eb3c ab43 e23c
00000220: 0bcc a03d b5bc 993d 92c6 9d30 185c 9030
00000230: 645a 2133 8248 1f33 2938 6e3f 5dfa 56bf
00000240: 359b 269f 4600 0080 ffa9 3d3a 7c88 413a
00000250: 5200 0080 a62d 8295 2f39 44a1 7b43 a59b
00000260: 0767 303d 0c02 2b3d 5300 0000 617d bca2
00000270: e4a3 6b3f 9747 79bf 19ae 083f 55a0 17bf
00000280: 4a00 0080 4400 0080 76c4 199f 6eca 009d
00000290: 5000 0080 f700 0080 f73d ba3c 3331 b43c
000002a0: 5d32 409f 4200 0080 2243 023e e754 d43d
000002b0: 4844 9736 39d3 9f36 95a3 a1bf b39c 8a3f
000002c0: 2700 0080 4e00 0080 54bd 813f e734 88bf
000002d0: 4a00 0000 4700 0080 7130 093c 5eb4 053c
000002e0: 83f0 203a 2ff1 1b3a 3300 0080 4900 0080
000002f0: 82c9 329a 5500 0000 8861 2f1c c211 fd9d
00000300: f215 953c 915e 903c 0a16 4d8f 5600 0080
00000310: 320a 1a3c 0724 163c 07a1 4280 6800 0000
-0.8610834 0.82961494 -3.342391e-23 -9.632271e-28 -9.4e-44 1.18e-43 -0.4695786 0.45039895
-8.5e-44 8.4e-44 0.0077303792 0.007445061 -2.7181513e-18 -7.510573e-33 0.025023183 0.024216633
1.6599525e-08 1.4859374e-08 -1.2164646e-31 -1.01e-43 1.0220512e-07 9.50886e-08 -0.92579484 0.9341642
-0.78456616 0.73663 1.0921291 -1.1034431 -1.2170044e-35 -1.16e-43 -1.0559901 1.020328
-5.2458024e-34 -1.2e-43 -3.755605e-30 -7.007297e-19 0.05760041 0.05617843 1.14e-43 1.01e-43
-3e-44 -9.5e-44 0.12870467 0.09872883 -1.4374276e-28 -1.25e-43 5.022431e-05 4.7434365e-05
-9.7e-44 -3.98e-43 0.03600671 0.0349057 1.11e-43 6.2e-44 0.8603285 -0.863212
1.14e-43 -1.5891411e-25 -1.5361646e-30 -1.1e-43 -4.4366893e-25 -1.6067268e-23 0.0232911 0.022529528
0.0006386107 0.0006571991 0.062109806 0.06019501 0.06284972 0.061061103 -8.9729674e-26 -1.19e-43
0.0065359063 0.0062692678 -7.026626e-12 -6.008437e-12 7.6e-44 -2.9745633e-21 0.6855642 -0.79457873
0.041762255 0.04114972 0.108083464 0.07537247 1.08e-43 -1.08e-43 -7.1e-44 -1.01e-43
0.030363187 0.029194966 9.8e-44 1.12e-43 0.076518804 0.07321623 -2.7386637e-17 -5.7991177e-34
5.3023197e-10 1.0423683e-10 -2.8217086e-25 -3.6766e-41 -3.5929976e-10 -5.004744e-10 -1.14e-43 -1.08e-43
0.032971535 0.031968504 -9.67e-27 -9.818007e-26 -5.7e-44 1.04e-43 -0.82329947 0.8103077
-1.2092523e-37 7.3710943e-20 0.049064863 0.043166634 -1.14e-43 6.4e-44 7e-44 1.05e-43
1.08e-43 6.9e-44 0.0030903886 0.0029689127 -3.570792e-18 -2.791335e-39 0.03910728 0.037888587
-1.02e-43 -2.3396576e-23 -1.04e-43 9.1e-44 -9.886945e-34 -6e-45 0.028696204 0.027620157
0.07851418 0.07506696 1.147969e-09 1.0503554e-09 3.7567943e-08 3.7086018e-08 0.93054444 -0.83975774
-3.528025e-20 -9.8e-44 0.0007235109 0.00073827035 -1.15e-43 -5.25786e-26 -6.6483065e-19 -2.7340568e-22
0.043067005 0.04175 1.16e-43 -5.1090252e-18 0.9204695 -0.9737486 0.5339065 -0.5922902
-1.04e-43 -9.5e-44 -3.256152e-20 -1.7045313e-21 -1.12e-43 -3.46e-43 0.022734625 0.021996116
-4.069924e-20 -9.2e-44 0.12720922 0.10367756 4.5080997e-06 4.763159e-06 -1.2628046 1.0829071
-5.5e-44 -1.1e-43 1.0135903 -1.0641145 1.04e-43 -1e-43 0.008373366 0.008160679
0.00061393547 0.000594872 -7.1e-44 -1.02e-43 -3.6972314e-23 1.19e-43 5.80287e-22 -6.6986904e-21
0.01819894 0.017623218 -1.0111525e-29 -1.2e-43 0.009401845 0.009163863 -6.118908e-39 1.46e-43

module.MLP.0.bias f4 [100]
00000000: 4055 5bbc f7dd ad07 9df2 8a94 46df c2bb
00000010: 4d6f 0180 5c16 8c3c 4100 0080 b323 553d
00000020: 108a 4633 4000 0000 268b a734 c68f 17bd
00000030: 8a21 edba e821 04bd 9e00 0080 e0f2 93bc
00000040: d3a7 e096 5500 0080 3707 ee3d 5e20 4099
00000050: 0f00 0080 7cbd 7e3e 5500 0000 a41e 0c39
00000060: 65e7 2b9d 9891 963d ef3f 1e90 7e2b e9bc
00000070: 4c00 0080 3b00 0080 6781 dca0 4604 473d
00000080: bbde fa3a 8124 ff3d 7eed 003e b530 e285
00000090: 95b1 6b3c a2d4 70ad 4a00 0080 1343 fe3c
000000a0: 97ce ae3d a455 513e 5400 0080 2500 0080
000000b0: e496 813d 6612 e2a2 d375 1b3e 69ec 709a
000000c0: 42ed 1731 4c00 0080 a524 022e 4b00 0000
000000d0: 58f3 8a3d 4400 0080 76c0 2680 0eac b3bc
000000e0: 0846 0aa4 f25c cb3d 4800 0080 2d71 c38a
000000f0: 846e 0080 49eb e93b 5500 0000 43b3 a33d
00000100: 4b00 0000 4000 0080 4600 0080 83ae 743d
00000110: e20c 203e a0d6 6831 7c51 8e34 30f0 9ebd
00000120: 985d c6a1 dece 083b 9001 0080 2ff4 bd9e
00000130: 0710 b33d 2647 5d88 15b6 abbb 2e3f 303c
00000140: 0700 0080 21dd 828b b197 0799 4779 423d
00000150: 3d00 0000 b1bb 753e 6f48 e137 478c 563d
00000160: 4700 0080 e154 21bc 37d0 3882 6f58 993c
00000170: 1528 ce3a 2a00 0080 4200 0080 e3ea d61c
00000180: 48f2 1d3d 5d90 7393 2e1f ab3c 4d00 0080
-0.013387024 2.6160606e-34 -1.4030133e-26 -0.0059470264 -1.31763e-40 0.017100506 -9.1e-44 0.052036
4.6226035e-08 9e-44 3.1207418e-07 -0.037002347 -0.001809166 -0.032258898 -2.21e-43 -0.018060148
-3.6295064e-25 -1.19e-43 0.1162247 -9.932704e-24 -2.1e-44 0.2487697 1.19e-43 0.00013362855
-2.275129e-21 0.073519886 -3.1209258e-29 -0.028463122 -1.06e-43 -8.3e-44 -3.735508e-19 0.04858806
0.0019139865 0.124581344 0.12590596 -2.127083e-35 0.014385601 -1.36896345e-11 -1.04e-43 0.031037843
0.08535498 0.20442826 -1.18e-43 -5.2e-44 0.06327608 -6.1276903e-18 0.15181665 -4.9821807e-23
2.2108257e-09 -1.06e-43 2.9591125e-11 1.05e-43 0.067846954 -9.5e-44 -3.558791e-39 -0.021932628
-2.99833e-17 0.09929837 -1.01e-43 -1.8820389e-32 -3.9646e-41 0.007138644 1.19e-43 0.07993176
1.05e-43 -9e-44 -9.8e-44 0.05973674 0.15629914 3.3882444e-09 2.650885e-07 -0.07760656
-1.3441776e-18 0.0020875256 -5.6e-43 -2.0112145e-20 0.08743291 -6.6588403e-34 -0.0052402117 0.010757251
-1e-44 -5.0406896e-32 -7.00997e-24 0.04747894 8.5e-44 0.2399738 2.685582e-05 0.052379873
-1e-43 -0.009846897 -1.357794e-37 0.018718926 0.0015728498 -5.9e-44 -9.2e-44 1.4222049e-21
0.038561136 -3.0742089e-27 0.020888891 -1.08e-43

module.MLP.2.weight f4 [100, 100]
00000000: 316f 323e 0901 0080 4200 0080 952c c23d
00000010: 2c01 0000 4d9c a139 5300 0000 5e4f 0d3a
00000020: 862d 4331 6100 0000 afff 8332 e948 443e
00000030: 758c 203e a62b 653e 2800 0080 752c 5b3e
00000040: 0c00 0080 5d00 0080 6de8 173a c800 0080
00000050: d800 0080 5ed7 6539 2b00 0080 5cdc a336
00000060: 3d00 0000 dec8 153a 2800 0000 17d2 333e
00000070: 1300 0000 1200 0080 7b12 df04 c377 0a3a
00000080: f26c 4938 39cf 133a ba59 113a 0500 0000
00000090: 3f5c 8f39 25a1 6525 3200 0000 e776 1a3e
000000a0: 91ad 173a e30f a139 2500 0000 0a00 0080
000000b0: 6c44 0c3a 3900 0000 9a41 053a 2500 0000
000000c0: f0c8 a42e 9f00 0080 d31d 422c 2700 0000
000000d0: 16a5 173a 3e00 0000 7e00 0000 ce64 2c3e
000000e0: 5b00 0000 9f42 0a3a 3800 0080 2200 0080
000000f0: 2000 0080 e7b3 2b39 4e00 0080 d8c2 183a
00000100: 3f00 0000 3a00 0000 4400 0000 7cb5 073a
00000110: 290a 053a 2c84 412f 3440 2132 fda4 383e
00000120: 2d00 0080 7eb1 5938 2d00 0080 2100 0080
00000130: 2345 1a3a 3700 0000 8cb2 453e 4ae3 ea3d
00000140: 4500 0000 6900 0080 2700 0000 ab40 093a
00000150: 2b00 0080 eeaf 7c39 ee99 5835 dcc1 773e
00000160: 1a00 0080 59e0 583e 7f00 0000 2ab4 a239
00000170: dfde 3a38 1301 0000 2b00 0000 ce8f 4c11
00000180: c8e3 fc39 a900 0000 cae5 b139 3300 0000
00000190: 3497 c733 9100 0080 3b00 0080 4f5a e8b2
000001a0: 0b00 0000 8656 eab3 4900 0000 c559 b5b4
000001b0: b672 cdaa 2800 0000 ae06 24ac 8bfc 85b4
000001c0: c74d 06b3 d665 2d36 3f00 0080 68c8 7db4
000001d0: 1d00 0080 3e00 0000 554e f636 4c00 0000
000001e0: 6000 0000 9a8b feb5 4a00 0000 0e60 97b0
000001f0: 3a00 0000 6cf2 d0b4 0800 0080 61b2 4db4
00000200: 0d00 0080 2300 0080 a200 0080 b4d9 dfb4
00000210: 603e 2cb2 a7fa 0137 e0ad 78b5 ed00 0080
00000220: 7ccf cb34 7000 0000 3100 0000 54b3 2fb4
00000230: 3e2a e5b4 b562 84b5 b300 0000 3100 0080
00000240: 8952 abb4 2600 0000 675e b8b5 1100 0080
00000250: 671b 5c2a 3900 0080 c775 4e1e 1c00 0000
00000260: d77b aeb4 1200 0000 4b00 0080 a815 f8b2
00000270: 6000 0000 c91a 69b5 2300 0080 3000 0000
00000280: 2b00 0080 d630 84b3 2b01 0080 ff28 07b5
00000290: 2500 0000 2b00 0000 6700 0080 6441 e8b4
000002a0: d8b0 86b5 6c28 76a8 2e00 02ac 61b1 41b4
000002b0: 2400 0000 9d57 c1b8 1300 0000 4700 0080
000002c0: f5b2 06b5 3900 0000 cdc4 82b4 6fcc 64b4
000002d0: 4300 0080 1600 0080 4b00 0080 e0d4 dab4
000002e0: 0a01 0080 fa36 cfb5 d821 36af 4f4c 5334
000002f0: 3800 0080 038c 61b4 ce00 0000 244b 01b7
00000300: 7d79 5fb2 a100 0080 3300 0000 8a42 4419
00000310: cfff 6fb4 0f00 0080 17e6 f0b3 3400 0000
00000320: 3300 0000 2600 0000 4500 0000 1c01 0000
00000330: 4c00 0000 2200 0000 1500 0080 4f00 0000
00000340: a700 0080 0f00 0000 8000 0080 0e00 0080
00000350: 8100 0080 5300 0080 2e00 0080 4900 0080
00000360: 1000 0080 1801 0080 0700 0080 d100 0000
00000370: 1700 0080 f400 0080 0a00 0080 2201 0080
00000380: 3000 0080 aa00 0080 4b00 0000 1b01 0080
00000390: e800 0000 1000 0080 3600 0000 1400 0080
000003a0: 3400 0080 2500 0000 4600 0080 0201 0080
000003b0: 9f00 0000 1300 0080 2c00 0080 cf00 0080
000003c0: 2f00 0080 cd00 0080 0b00 0080 3400 0080
000003d0: b800 0080 3400 0000 3e00 0080 c300 0000
000003e0: 0800 0000 3000 0000 3e00 0080 3c00 0080
000003f0: 4d00 0000 2000 0080 1b00 0080 1a01 0000
0.17425229 -3.71e-43 -9.2e-44 0.094811596 4.2e-43 0.00030824766 1.16e-43 0.000539055
2.8402112e-09 1.36e-43 1.5366679e-08 0.19168438 0.1567858 0.22379932 -5.6e-44 0.21403678
-1.7e-44 -1.3e-43 0.0005794827 -2.8e-43 -3.03e-43 0.00021919372 -6e-44 4.8834318e-06
8.5e-44 0.00057138305 5.6e-44 0.17560612 2.7e-44 -2.5e-44 5.244402e-36 0.0005282128
4.8023598e-05 0.00056384836 0.00055446813 7e-45 0.00027343814 1.9917182e-16 7e-44 0.1508442
0.0005786056 0.0003072015 5.2e-44 -1.4e-44 0.0005350772 8e-44 0.0005083323 5.2e-44
7.49355e-11 -2.23e-43 2.7585614e-12 5.5e-44 0.00057847926 8.7e-44 1.77e-43 0.16835329
1.28e-43 0.00052742095 -7.8e-44 -4.8e-44 -4.5e-44 0.0001637485 -1.1e-43 0.0005827374
8.8e-44 8.1e-44 9.5e-44 0.00051768846 0.00050750613 1.7600205e-10 9.3860315e-09 0.18031688
-6.3e-44 5.1902134e-05 -6.3e-44 -4.6e-44 0.0005884936 7.7e-44 0.19306391 0.11469133
9.7e-44 -1.47e-43 5.5e-44 0.00052357715 -6e-44 0.00024098132 8.069027e-07 0.24195045
-3.6e-44 0.21179332 1.78e-43 0.0003103328 4.455342e-05 3.85e-43 6e-44 1.6137076e-28
0.00048234896 2.37e-43 0.00033931277 7.1e-44 9.294163e-08 -2.03e-43 -8.3e-44 -2.7049422e-08
1.5e-44 -1.09122126e-07 1.02e-43 -3.3779193e-07 -3.6494912e-13 5.6e-44 -2.330951e-12 -2.495693e-07
-3.1270044e-08 2.5838285e-06 -8.8e-44 -2.3635369e-07 -4e-44 8.7e-44 7.3404904e-06 1.06e-43
1.35e-43 -1.8965104e-06 1.04e-43 -1.1013996e-09 8.1e-44 -3.8919404e-07 -1.1e-44 -1.9157007e-07
-1.8e-44 -4.9e-44 -2.27e-43 -4.1695387e-07 -1.00259e-08 7.747359e-06 -9.264022e-07 -3.32e-43
3.796266e-07 1.57e-43 6.9e-44 -1.6363384e-07 -4.268531e-07 -9.863494e-07 2.51e-43 -6.9e-44
-3.1911284e-07 5.3e-44 -1.3736543e-06 -2.4e-44 1.9549432e-13 -8e-44 1.0929905e-20 3.9e-44
-3.250013e-07 2.5e-44 -1.05e-43 -2.8880848e-08 1.35e-43 -8.683824e-07 -4.9e-44 6.7e-44
-6e-44 -6.155612e-08 -4.19e-43 -5.0351076e-07 5.2e-44 6e-44 -1.44e-43 -4.3260945e-07
-1.0035246e-06 -1.3664508e-14 -1.847421e-12 -1.8039056e-07 5e-44 -9.2192764e-05 2.7e-44 -1e-43
-5.0179307e-07 8e-44 -2.4357578e-07 -2.1308527e-07 -9.4e-44 -3.1e-44 -1.05e-43 -4.076055e-07
-3.73e-43 -1.5438702e-06 -1.6564827e-10 1.9678667e-07 -7.8e-44 -2.1005694e-07 2.89e-43 -7.706494e-06
-1.3007932e-08 -2.26e-43 7.1e-44 1.01464e-23 -2.2351672e-07 -2.1e-44 -1.1217724e-07 7.3e-44
7.1e-44 5.3e-44 9.7e-44 3.98e-43 1.06e-43 4.8e-44 -3e-44 1.11e-43
-2.34e-43 2.1e-44 -1.8e-43 -2e-44 -1.81e-43 -1.16e-43 -6.4e-44 -1.02e-43
-2.2e-44 -3.92e-43 -1e-44 2.93e-43 -3.2e-44 -3.42e-43 -1.4e-44 -4.06e-43
-6.7e-44 -2.38e-43 1.05e-43 -3.97e-43 3.25e-43 -2.2e-44 7.6e-44 -2.8e-44
-7.3e-44 5.2e-44 -9.8e-44 -3.62e-43 2.23e-43 -2.7e-44 -6.2e-44 -2.9e-43
-6.6e-44 -2.87e-43 -1.5e-44 -7.3e-44 -2.58e-43 7.3e-44 -8.7e-44 2.73e-43
1.1e-44 6.7e-44 -8.7e-44 -8.4e-44 1.08e-43 -4.5e-44 -3.8e-44 3.95e-43

module.MLP.2.bias f4 [100]
00000000: 07df 59ba 2637 d035 2400 0080 ac40 503e
00000010: aa10 06b8 e1ea 58ba b888 64b9 8b62 15b9
00000020: 53d0 b1b6 f9b9 303e e670 5bba 2375 e937
00000030: 8c0c 3a3e 699f 543e bc9e 2a3e bccd 55ba
00000040: 9a1f 26b9 6e57 64ba 9a4e 51ba c0e8 d032
00000050: b8f5 b332 87a7 413e f6db c3b7 4600 0080
00000060: 5e75 902e 83c6 3ab9 5835 68b8 c2d3 4eba
00000070: efcd 1a29 3fd8 13b7 c504 0838 63e4 ad34
00000080: 0f86 7537 1f58 43b4 bd78 f337 968d 50ba
00000090: 5efe d1b7 ba16 3dba c652 29b9 6874 69ba
000000a0: 0ba5 9cb8 7100 0000 7259 46b6 63ad 323e
000000b0: 4700 0000 13ab 10b9 dde2 1e36 9a3e 0d36
000000c0: dce8 50ba 2735 0c39 ac68 6fba a22a 3838
000000d0: dede 453e 4700 0080 3ffb 8837 7ee1 3dba
000000e0: 1982 56ba b048 f935 ec55 09b7 5491 03b5
000000f0: 42e9 b1b8 4567 2633 3d27 332f c7ef 273e
00000100: 865f 413e 6e82 59ba bd15 43b9 d0cc 433e
00000110: 0011 4aba 98d6 483e 6e10 3db8 8c53 533e
00000120: 4fd7 33ad dfc8 46b8 7a00 0000 1f3f 56ba
00000130: c846 64ba d59c f6b0 1149 a835 1c11 1638
00000140: 0af3 59ba b3e8 e3b7 1f3a 61ba 1637 3e3e
00000150: 272e 3d3e 8ce3 2c3e 2926 6aba 065e 50ba
00000160: f0b6 20b7 e65a 0529 89e5 6e3e 2739 f434
00000170: a593 3c3e 7b80 d5b8 5303 2a3e 1200 0080
00000180: 6c28 5aba 39ad 9836 da57 5ab9 1913 58ba
-0.0008311127 1.5513258e-06 -5e-44 0.2033717 -3.196361e-05 -0.0008274746 -0.00021794706 -0.00014246457
-5.299263e-06 0.17258443 -0.000837101 2.783031e-05 0.18168849 0.20763935 0.16662115 -0.0008155962
-0.00015842766 -0.0008710538 -0.000798443 2.432023e-08 2.0950083e-08 0.18911563 -2.3348239e-05 -9.8e-44
6.5692105e-11 -0.00017812294 -5.536279e-05 -0.0007889831 3.4373488e-14 -8.8122315e-06 3.242937e-05 3.2389934e-07
1.4634351e-05 -1.8192848e-07 2.902408e-05 -0.0007955668 -2.503319e-05 -0.00072131644 -0.00016147931 -0.00089055905
-7.469401e-05 1.58e-43 -2.9556363e-06 0.17448954 1e-43 -0.0001379664 2.3675886e-06 2.1047076e-06
-0.0007969269 0.00013371241 -0.0009132724 4.3908723e-05 0.19323298 -1e-43 1.6329459e-05 -0.0007243379
-0.0008182838 1.85731e-06 -8.185842e-06 -4.9012783e-07 -8.483465e-05 3.874381e-08 1.6293895e-10 0.16400062
0.18884096 -0.00082973286 -0.00018604747 0.19121099 -0.00077082217 0.19613111 -4.5076413e-05 0.2063734
-1.022278e-11 -4.7393954e-05 1.71e-43 -0.0008172858 -0.0008708057 -1.794343e-09 1.253824e-06 3.577872e-05
-0.00083141087 -2.7168868e-05 -0.00085917296 0.18575701 0.18474637 0.16883677 -0.0008932078 -0.0007948581
-9.579337e-06 2.9610774e-14 0.23329748 4.5490125e-07 0.18415697 -0.00010180563 0.1660283 -2.5e-44
-0.00083220634 4.550119e-06 -0.00020822827 -0.0008242592

module.MLP.4.weight f4 [1, 100]
00000000: f945 2ebf 0203 a3b4 0701 0000 3c7c 5b3f
00000010: bfe6 18be 0107 31bf f5d8 7abe fafe 4bbe
00000020: fac6 8eb7 e049 393f 56b4 1ebf 21d3 e1bd
00000030: 884d 433f 2f82 603f dfaa 323f 42b0 29bf
00000040: 27ee 4dbe 6114 30bf 2f0e 1cbf ff6a bcb3
00000050: 0c69 d5b4 fe87 4b3f eecf 56b8 4600 0000
00000060: f883 0e2f 0f9e 57be 2291 25be 0fba 19bf
00000070: ba0c 27ab c21c 5a37 e11b 5cb8 f137 0fb5
00000080: 4050 99bc c222 48b3 aef8 0ebd 5fd9 19bf
00000090: 8d40 f037 491a 0dbf 4764 4cbe 6a1b 5abf
000000a0: 42ea 21be 3600 0000 8fdd e236 da67 3b3f
000000b0: 8000 0080 cfbc 43be de50 2537 60b9 5836
000000c0: 987c 18bf d93c 0e38 4f4b 68bf e5df 1635
000000d0: 1c8a 503f 4800 0000 4c30 aeb8 e0b5 36bf
000000e0: 11a9 19bf dff8 50b6 5249 0fb7 a741 1435
000000f0: bccc 2abe 384a ae33 5eb7 ed2f 59d0 2f3f
00000100: e038 4b3f ae8c 27bf b34f 55be b603 4e3f
00000110: 8730 41bf 48c0 533f c68b fabd 722f 5f3f
00000120: 5ae0 892d c59c b938 6d00 0000 28bd 1ebf
00000130: c656 23bf e732 0fb0 cba3 a2b6 d7ae 1eb8
00000140: 9ef5 1cbf 180c 8437 96d4 27bf 6fc2 473f
00000150: 35b7 463f f219 353f f49a 59bf 40f5 32bf
00000160: a0b5 18b7 0c07 51aa ebc8 7d3f 1e4d 20b7
00000170: 99ff 453f 266c 31be 0413 323f e600 0000
00000180: 0689 32bf e641 d536 6464 61be e9b2 3cbf
-0.6807552 -3.0363304e-07 3.69e-43 0.8573644 -0.14931773 -0.6915131 -0.24496825 -0.19921485
-1.7020375e-05 0.7237835 -0.6199392 -0.11026598 0.7629018 0.87698644 0.6979198 -0.66284573
-0.20110379 -0.68781096 -0.6095914 -8.773895e-08 -3.9750773e-07 0.7950438 -5.1215226e-05 9.8e-44
1.296171e-10 -0.21056388 -0.16168645 -0.6004953 -5.934798e-13 1.3000508e-05 -5.247805e-05 -5.3353057e-07
-0.018715024 -4.659774e-08 -0.03490513 -0.60097307 2.8640288e-05 -0.5511823 -0.19960128 -0.8519808
-0.15812019 7.6e-44 6.7611177e-06 0.7320534 -1.8e-43 -0.19114994 9.853595e-06 3.229441e-06
-0.59565115 3.3912107e-05 -0.9073991 5.6205164e-07 0.8146074 1.01e-43 -8.3059625e-05 -0.7137127
-0.600236 -3.1139277e-06 -8.540535e-06 5.5229833e-07 -0.16679662 8.116007e-08 4.324034e-10 0.6867729
0.7938366 -0.65449035 -0.20831184 0.8047441 -0.7546467 0.8271527 -0.12233691 0.8718177
1.5674729e-11 8.850688e-05 1.53e-43 -0.6200738 -0.6380428 -5.2095434e-10 -4.8470442e-06 -3.7832968e-05
-0.6131228 1.5741258e-05 -0.65558755 0.7803106 0.776233 0.70742714 -0.85002065 -0.6990547
-9.102194e-06 -1.8565374e-13 0.991347 -9.554698e-06 0.77343136 -0.17326412 0.69560266 3.22e-43
-0.6974033 6.3555663e-06 -0.22010952 -0.73710495
